Samples/Tutorial Samples/PyTorch Image Classification/Windows ML code - classifierPyTorchModel/Assets/ImageClassifier.onnx (onnx, 201956 bytes, 10 tensors)

48 f4 [12, 3, 5, 5]
-0.049458925 -0.08114041 -0.036569312 0.016442351 0.035170577 -0.1850436 -0.0531549 -0.034948442
0.09576406 0.12827629 -0.1875743 -0.018691309 -0.0014994702 -0.05211691 0.11806413 -0.20319602
-0.17224643 -0.14888026 -0.03367448 0.07317504 -0.18545127 -0.1957942 -0.058658347 -0.0009419465
-0.035445713 -0.14535399 -0.23134473 -0.15541528 -0.21308422 -0.10320261 -0.07488823 0.034622148
0.06863007 0.04017694 -0.03842781 0.030540396 0.0037556873 0.18069662 0.061925776 -0.098414406
-0.061225977 0.04134152 -0.040217888 -0.013557799 -0.00034531974 0.02506587 0.030526416 -0.020144911
-0.14611404 0.012944232 -0.06550533 -0.03772527 0.028460408 0.06504958 -0.09053937 0.01920864
0.15295254 0.2593851 0.23750496 0.11507021 0.1041671 0.32262057 0.38659245 0.31415385
0.09949662 0.18777183 0.26659918 0.24371469 0.08231146 -0.12893666 0.069428004 0.12047318
0.06582547 0.013979547 -0.1757272 0.059607733 -0.00016536069 -0.0268648 -0.34281358 -0.11080805
-0.1450528 -0.25125802 0.01962023 -0.0013665895 0.17707221 -0.012061798 -0.0009953332 0.2742782
0.1893421 0.26650533 0.085126765 -0.078454085 0.19008528 -0.08856818 -0.15772408 0.19247101
-0.011870716 -0.00921485 -0.067845 -0.0007699749 -0.25325206 -0.16959524 0.014197737 -0.10517311
0.07581975 -0.15271153 -0.31431055 0.110755764 -0.010400606 0.2928391 -0.2744318 -0.14841375
0.12849583 0.10948731 0.22668484 0.0043915566 -0.18857327 0.14547339 0.013227672 -0.181788
-0.09856484 -0.13631707 -0.10540154 -0.12567009 -0.116919525 -0.060074013 -0.018324832 0.072332755
-0.14425464 0.16980663 -0.069018 -0.2194695 0.25383157 0.0012174847 0.2557641 -0.18439314
-0.2351927 0.20519193 0.1725153 0.05861689 -0.0791039 -0.024495797 0.24953806 0.15602912
-0.17556836 0.020945005 0.079434514 0.06384231 0.23889625 0.12532341 0.037129745 -0.049952894
0.005326313 0.17191567 -0.013938754 -0.032797646 -0.0016090767 -0.11352653 -0.1412066 0.021316418
0.0025345942 0.06508627 0.20123434 0.32095742 0.24578016 0.014923958 -0.01694913 -0.3098035
-0.28108227 -0.16641228 -0.17681861 -0.029690137 -0.09505865 -0.20708631 -0.20385882 0.18456057
0.047057413 -0.15837067 -0.08436203 -0.15412827 -0.0501212 0.029103152 -0.05747249 -0.00745826
-0.14703953 0.1897036 0.1049531 0.11076362 0.37926432 0.2440474 -0.023930268 -0.13067532
-0.27865142 -0.019485567 0.04456044 -0.12681766 -0.08200816 -0.12693968 -0.28816894 -0.10487259
0.094963476 0.09741939 -0.09141916 -0.05708706 -0.1803786 0.19153142 0.00864366 -0.1321799
-0.054949608 -0.08000786 0.3120711 0.3511395 0.32424048 0.29689005 0.1963401 0.011688892
0.16145423 -0.19346985 -0.057433072 0.046540946 0.1639701 -0.04845169 -0.05419936 -0.02227881
-0.06090667 0.14459613 0.41607556 0.25227475 0.06594065 -0.18189126 0.20597097 0.15077065
-0.66990864 0.06854762 0.31524083 -0.36751926 -0.47639588 -0.64050275 0.16797657 0.20547192
-0.48393115 0.36861143 -0.50039136 -0.20520638 -0.37120917 -0.16812962 0.5458009 -0.08257464
0.1082855 0.097052194 0.1827661 0.19721504 -0.07807765 -0.043841276 -0.11034265 0.0076136505
00000000: 7195 4abd f12c a6bd b4c9 15bd 1cb2 863c
00000010: 060f 103d 127c 3dbe f4b8 59bd 1926 0fbd
00000020: f31f c43d dc5a 033e 7a13 40be 841e 99bc
00000030: df89 c4ba 8b78 55bd 9bcb f13d 9e12 50be
00000040: 5e61 30be 1174 18be 40ee 09bd ccdc 953d
00000050: f0e6 3dbe 467e 48be bc43 70bd f6ec 76ba
00000060: 862f 11bd add7 14be a2e5 6cbe 2f25 1fbe
00000070: c032 5abe e45b d3bd 005f 99bd f4cf 0d3d
00000080: ec8d 8c3d 9390 243d 7b66 1dbd da2f fa3c
00000090: fa21 763b 8908 393e e2a5 7d3d 7e8d c9bd
000000a0: 17c8 7abd ba55 293d 83bb 24bd 8821 5ebc
000000b0: 080c b5b9 f056 cd3c 8912 fa3c f106 a5bc
000000c0: eb9e 15be 0b14 543c a927 86bd d085 1abd
000000d0: cd25 e93c b738 853d b56c b9bd 705b 9d3c
000000e0: 979f 1c3e 20ce 843e 8034 733e eea9 eb3d
000000f0: 8f55 d53d 862e a53e 72ef c53e c6d8 a03e
00000100: e2c4 cb3d 4247 403e b07f 883e 5890 793e
00000110: e992 a83d f907 04be 4530 8e3d a5ba f63d
00000120: 81cf 863d 780a 653c d5f1 33be 3d27 743d
00000130: ac64 2db9 9213 dcbc 4385 afbe 55ef e2bd
00000140: b988 14be e4a4 80be 9bba a03c 221f b3ba
00000150: 6b52 353e d99e 45bc d775 82ba 316e 8c3e
00000160: e5e2 413e 6373 883e f156 ae3d 89ac a0bd
00000170: b7a5 423e 3c63 b5bd 6c82 21be 1f17 453e
00000180: 647d 42bc e2f9 16bc 52f2 8abd 24d8 49ba
00000190: 41aa 81be 60aa 2dbe a09d 683c 0065 d7bd
000001a0: 6347 9b3d 6960 1cbe 50ed a0be ebd3 e23d
000001b0: 4e67 2abc 02ef 953e 5382 8cbe c6f9 17be
000001c0: 6994 033e e23a e03d 1220 683e 0ce7 8f3b
000001d0: 5a19 41be faf6 143e e1b8 583c a226 3abe
000001e0: 5ddc c9bd b496 0bbe c3dc d7bd a9af 00be
000001f0: 8173 efbd 2b10 76bd f51d 96bc 3223 943d
00000200: 7db7 13be cae1 2d3e 4f59 8dbd 9dbc 60be
00000210: 36f6 813e 0294 9f3a 83f3 823e 8ed1 3cbe
00000220: 5bd6 70be d51d 523e daa7 303e 4418 703d
00000230: 3a01 a2bd 69ab c8bc e886 7f3e 19c6 1f3e
00000240: 31c8 33be dc94 ab3c 90ae a23d c2bf 823d
00000250: 38a1 743e c854 003e 5c15 183d 689b 4cbd
00000260: 5a88 ae3b a90a 303e 5f5f 64bc d356 06bd
00000270: a8e7 d2ba 9980 e8bd 7798 10be c59f ae3c
00000280: 6f1b 263b f34b 853d 6010 4e3e 8854 a43e
00000290: cbad 7b3e 9e83 743c e7d8 8abc 909e 9ebe
000002a0: 04ea 8fbe fb67 2abe f00f 35be bb38 f3bc
000002b0: 1cae c2bd 6f0e 54be 5ec0 50be 72fd 3c3e
000002c0: 46bf 403d ec2b 22be 00c6 acbd cdd3 1dbe
000002d0: e34b 4dbd bc69 ee3c 4668 6bbd 6b64 f4bb
000002e0: 8891 16be a941 423e a7f1 d63d 09d8 e23d
000002f0: ef2e c23e 90e7 793e 6909 c4bc c0cf 05be
00000300: 66ab 8ebe 32a0 9fbc 0285 363d 7ddc 01be
00000310: e5f3 a7bd 7afc 01be e18a 93be 71c7 d6bd
00000320: 367c c23d d183 c73d f839 bbbd 1fd4 69bd
00000330: 2bb5 38be d020 443e 239e 0d3c 2b5a 07be
00000340: d712 61bd 29db a3bd c9c7 9f3e 8ec8 b33e
00000350: d902 a63e f901 983e 610d 493e c482 3f3c
00000360: 4254 253e f61c 46be f13e 6bbd b8a1 3e3d
00000370: c7e7 273e 4775 46bd 2600 5ebd 0d82 b6bc
00000380: 4679 79bd 0211 143e db07 d53e 282a 813e
00000390: e40b 873d b441 3abe 0eea 523e 9f63 1a3e
000003a0: 227f 2bbf b262 8c3d 3f67 a13e 7c2b bcbe
000003b0: 29ea f3be fdf7 23bf 0d02 2c3e 3b67 523e
000003c0: d3c5 f7be a3ba bc3e a619 00bf 9f21 52be
000003d0: 210f bebe 2c2a 2cbe 9cb9 0b3f e51c a9bd
000003e0: cac4 dd3d 4dc3 c63d 0927 3b3e bdf2 493e
000003f0: 2de7 9fbd e992 33bd 54fb e1bd ee7b f93b

49 f4 [12]
0.11521659 0.44118887 -0.092715204 0.4475604 -0.118218206 0.026887707 -0.18330227 0.27286854
0.22821072 0.03137801 0.069685355 0.8140892
00000000: adf6 eb3d 82e3 e13e 78e1 bdbd a326 e53e
00000010: 631c f2bd 9c43 dc3c 97b3 3bbe 6db5 8b3e
00000020: 12b0 693e 3a86 003d 32b7 8e3d 2668 503f

51 f4 [12, 12, 5, 5]
-0.029883971 -0.013958007 0.003571919 0.026867822 0.026903283 -0.04950542 -0.03071595 -0.018558137
0.009782483 0.021149391 -0.025564818 -0.020695088 -0.016669914 0.014737667 0.02141792 -0.0035367508
0.008485197 0.01298659 0.021245329 0.0076926975 -0.005208906 0.0032811712 0.021250356 0.015683709
0.015242827 -0.0033303925 0.009908765 -0.0080546765 -0.004140857 -0.028982831 0.0012618673 -0.019124107
-0.039781697 -0.033797957 -0.035536516 -0.003310274 -0.012013046 -0.006110612 0.008597895 0.01606055
0.026234917 0.031315614 0.045586757 0.038485393 0.034222934 0.0357212 0.021673515 0.03575595
0.001431846 0.007175434 -0.021583023 0.010921252 0.019993652 0.0063843406 0.014774835 -0.020819917
-0.016090604 0.00384444 -0.009962667 0.003358099 -0.06592373 -0.056873225 -0.061721023 -0.052350637
-0.035475172 0.012069107 0.039129306 0.03593673 0.02109311 0.010107119 -0.021860566 0.0016231016
0.020238236 0.0017759163 -0.00276759 0.0034761701 -0.0025651758 -0.025278581 -0.040439155 -0.041103203
0.032767184 0.05496868 0.03677037 0.04164515 0.021715503 0.001061569 0.04505626 0.029446086
0.032403167 0.020021323 -0.006771467 -0.026275767 -0.05132503 -0.049177818 -0.01881709 -0.038334288
-0.06362945 -0.069065414 -0.06855483 -0.03232836 -0.05677933 -0.05290878 -0.06807999 -0.07768049
-0.077718124 0.024660101 0.019472953 0.019326152 0.0036708503 0.0027727562 0.054640673 0.036291044
0.04406518 0.03964252 0.029627219 0.038527273 0.049272206 0.035064127 0.021362238 0.038406085
0.016556645 -0.006125316 -0.015226588 -0.013503545 -0.016618691 0.0140875215 0.005849005 -0.012164048
-0.023737332 0.01431588 0.010428063 0.007894012 -0.0132892225 -0.025009891 0.014918432 -0.027788436
-0.045043293 -0.07817677 -0.086233065 -0.052717354 -0.073303126 -0.07116164 -0.091854386 -0.07952017
-0.06950377 0.002338989 0.004027588 0.013614808 -0.0017196003 -0.014242824 -0.017862353 -0.026958808
-0.022518456 -0.011596801 0.006270666 -0.021504888 -0.01699166 -0.005393995 -0.0077266106 0.0019043374
-0.02023064 -0.0021543491 -0.0070813913 -0.016868602 -0.0084168315 -0.025025543 -0.03045996 -0.032250598
0.00018838678 0.0038685207 -0.029197335 -0.022112602 -0.011658013 0.025551112 0.044871423 -0.10781202
-0.1127466 -0.07327694 -0.02658588 -0.022040043 0.00020756113 0.007580958 0.021747967 0.008394999
-0.016026335 0.02962659 0.0023688397 0.010852405 -0.0057098637 -0.018631594 0.06937778 0.07521542
0.07566786 0.03678518 0.026361097 0.03755421 0.02598403 0.016774397 -0.0061047766 -0.0070855725
-0.060159236 -0.033863217 -0.058786478 -0.05153686 -0.025925154 0.021262502 0.05114879 0.04577018
0.027414342 0.040655464 0.0009597443 0.00037037508 -0.015770106 0.008386741 0.023867015 0.04000961
0.040531203 0.0013401369 0.008987462 0.019202203 -0.024510082 -0.008880803 -0.025726186 0.0014605336
-0.017183483 -0.002559926 0.014691124 0.025218636 0.0015600062 0.009507778 -0.022708155 -0.012291223
-0.012517242 -0.02155802 -0.0056027267 -0.01417085 0.013104075 -0.008464289 -0.015071025 -0.0028703613
0.050540883 0.06176574 0.0779725 0.06948878 0.048093136 -0.004869984 0.022751896 0.043034405
0.039051022 0.028710186 -0.035203442 -0.033400092 -0.034930266 -0.041946966 -0.027411528 -0.069839306
00000000: 3bcf f4bc 20b0 64bc db16 6a3b e819 dc3c
00000010: 4664 dc3c 32c6 4abd 04a0 fbbc 3c07 98bc
00000020: b546 203c 7d41 ad3c 4f6d d1bc bf88 a9bc
00000030: 588f 88bc 4176 713c a274 af3c d5c8 67bb
00000040: 7f05 0b3c b5c5 543c af0a ae3c 0613 fc3b
00000050: 78af aabb eb08 573b 3a15 ae3c 1f7b 803c
00000060: 0dbd 793c b742 5abb 5f58 223c c3f7 03bc
00000070: 07b0 87bb 676d edbc 3e65 a53a 29aa 9cbc
00000080: 22f2 22bd ba6f 0abd bd8e 11bd 2ff1 58bb
00000090: 5ed2 44bc 873b c8bb 2fde 0c3c 6a91 833c
000000a0: 9cea d63c cd44 003d 2eb9 3a3d dca2 1d3d
000000b0: 592d 0c3d 6550 123d a88c b13c d574 123d
000000c0: c7ac bb3a e71f eb3b e1ce b0bc 0def 323c
000000d0: bac9 a33c bb33 d13b 2612 723c 888e aabc
000000e0: 71d0 83bc 00f3 7b3b 743a 23bc 8d13 5c3b
000000f0: 0503 87bd e6f3 68bd 2fcf 7cbd 9f6d 56bd
00000100: 6a4e 11bd 81bd 453c 0d46 203d 6532 133d
00000110: 75cb ac3c 5498 253c ee14 b3bc 41be d43a
00000120: a8ca a53c ddc5 e83a 7560 35bb 75d0 633b
00000130: 821c 28bb 0715 cfbc 87a3 25bd d55b 28bd
00000140: e236 063d d726 613d 879c 163d 1b94 2a3d
00000150: b6e4 b13c 5824 8b3a ea8c 383d eb38 f13c
00000160: 2fb9 043d c203 a43c 2fe3 ddbb 4740 d7bc
00000170: 323a 52bd ae6e 49bd 4c26 9abc 6a04 1dbd
00000180: 2850 82bd 2b72 8dbd 7a66 8cbd be6a 04bd
00000190: 7191 68bd e0b6 58bd 866d 8bbd f316 9fbd
000001a0: ae2a 9fbd fb03 ca3c be85 9f3c e151 9e3c
000001b0: a692 703b 21b7 353b e6ce 5f3d eba5 143d
000001c0: b17d 343d 3260 223d c8b4 f23c c6ce 1d3d
000001d0: a7d1 493d 679f 0f3d dcff ae3c b34f 1d3d
000001e0: cda1 873c e0b6 c8bb f078 79bc f93d 5dbc
000001f0: ec23 88bc 59cf 663c 03a9 bf3b b74b 47bc
00000200: cb74 c2bc 278d 6a3c 77da 2a3c e355 013c
00000210: 0abb 59bc 8be1 ccbc 706c 743c 93a4 e3bc
00000220: 517f 38bd 241b a0bd f69a b0bd 27ee 57bd
00000230: f31f 96bd 32bd 91bd 271e bcbd 79db a2bd
00000240: fe57 8ebd b949 193b dbf9 833b a510 5f3c
00000250: 3664 e1ba bc5a 69bc 1254 92bc b8d8 dcbc
00000260: a078 b8bc 8200 3ebc 297a cd3b 052b b0bc
00000270: 1832 8bbc 1cc0 b0bb 822f fdbb f69a f93a
00000280: baba a5bc fb2f 0dbb 040b e8bb 0630 8abc
00000290: c0e6 09bc 5e02 cdbc 2b87 f9bc 3419 04bd
000002a0: b189 4539 0287 7d3b 402f efbc 7d25 b5bc
000002b0: 4001 3fbc 9150 d13c 19cb 373d 8ccc dcbd
000002c0: b0e7 e6bd 3812 96bd a2ca d9bc 528d b4bc
000002d0: c4a4 5939 af69 f83b cb28 b23c 2e8b 093c
000002e0: a949 83bc 76b3 f23c 893e 1b3b 49ce 313c
000002f0: cf19 bbbb 49a1 98bc f015 8e3d 8b0a 9a3d
00000300: c0f7 9a3d 0fac 163d 3af3 d73c 71d2 193d
00000310: 76dc d43c 766a 893c 940a c8bb 172e e8bb
00000320: 8869 76bd 28b4 0abd 17ca 70bd 5118 53bd
00000330: fd60 d4bc b32e ae3c 6581 513d 8379 3b3d
00000340: 0b94 e03c 5886 263d 5a97 7b3a e72e c239
00000350: 4f30 81bc 8b68 093c c284 c33c 1ee1 233d
00000360: 0c04 263d 88a7 af3a 2640 133c f04d 9d3c
00000370: 5ec9 c8bc ca80 11bc b9bf d2bc 606f bf3a
00000380: 60c4 8cbc 6ec4 27bb 0ab3 703c 5097 ce3c
00000390: 1f79 cc3a 83c6 1b3c 7406 babc 2061 49bc
000003a0: 1e15 4dbc 729a b0bc 1497 b7bb da2c 68bc
000003b0: 79b2 563c cdad 0abc 76ec 76bc ac1c 3cbb
000003c0: f503 4f3d 13fe 7c3d 0cb0 9f3d 2250 8e3d
000003d0: 4ffd 443d 6394 9fbb 2f62 ba3c d844 303d
000003e0: f7f3 1f3d a031 eb3c 7c31 10bd 89ce 08bd
000003f0: 0a13 0fbd 95d0 2bbd 248e e0bc e907 8fbd

52 f4 [12]
0.4693256 0.2503948 0.09545152 0.38956106 0.21135962 0.51615465 0.49688005 1.3571541
0.1415067 0.35547903 0.6142369 0.19526008
00000000: 724b f03e bf33 803e 167c c33d 8c74 c73e
00000010: a86e 583e b622 043f 1067 fe3e 3ab7 ad3f
00000020: 22e7 103e 5901 b63e a13e 1d3f 42f2 473e

54 f4 [24, 12, 5, 5]
0.0013684153 -0.04102481 -0.07853819 -0.100669146 -0.06775011 0.04883059 0.01715898 0.01856542
0.03100071 0.022173436 0.026659017 0.009964436 0.008178629 0.012629628 -0.01507759 0.061752163
0.03767846 1.7395047e-05 0.02335583 -0.011698507 0.020183299 0.057351917 0.06206121 0.0413483
-0.031068927 -0.029881706 -0.036023222 -0.01168409 0.03915567 0.05091258 -0.016668757 0.034082506
0.030508906 0.015705941 0.019048357 0.035105467 0.01689323 0.003997046 0.008035573 0.021483134
0.100345515 0.03992251 0.040209904 -0.0022017884 -0.05372413 0.08181936 0.034932192 -0.0135280015
-0.054681756 -0.04132568 0.054256633 0.05485713 0.010382514 -0.0107464325 -0.02834601 0.031862386
0.043983683 0.028487535 0.0014827811 -0.041317686 0.045425624 0.020891717 -0.006901348 -0.02438997
-0.030117407 0.031019557 0.02335999 -0.026776649 -0.05175738 -0.0031765157 0.047099497 0.02212414
0.025269669 0.012327912 0.008509855 0.009984225 -0.0015393103 0.06269559 0.07035249 -0.0031797565
0.046574663 0.07171374 0.07150122 0.04743888 -0.020238513 0.032415997 0.07019973 0.048127137
0.043072492 -0.047605764 0.04672444 0.062118113 0.030110132 -0.0016351601 -0.123472326 0.06503979
0.029920276 -0.020588035 0.027443465 -0.04752602 -0.011350753 -0.032499198 0.0397847 -0.0012826697
-0.030025862 -0.0022549157 -0.03722815 0.004688812 -0.0307261 -0.051912718 -0.04158793 -0.028680783
-0.016783278 -0.08007034 -0.09413213 -0.04616877 -0.059292458 -0.038625292 -0.09866123 -0.09686211
0.009503639 -0.00777839 0.030078342 0.013860594 -0.057340775 0.0140418885 0.0015910534 0.022236688
0.006486652 0.06180433 0.036328282 0.01610763 0.0027005519 0.012110237 0.032869402 -0.009258097
-0.054933317 -0.021945853 -0.015139191 -0.038519707 0.009212475 -0.014480913 -0.031184474 -0.033840824
-0.05366412 0.03050722 0.04200396 0.0063927327 -0.00083951565 -0.061651617 -0.04800842 -0.05663763
-0.022665061 0.017777354 -0.008150042 0.030616531 0.062176634 0.062724695 0.07635155 0.027880378
0.047630075 0.07091222 0.04775526 0.031875823 0.001198409 0.04439394 0.024169369 0.020905672
0.021604067 0.02655846 0.0028728263 -0.008514247 -0.0107816355 0.0016362722 -0.029710008 0.014893338
-0.005110563 -0.04484687 -0.041132335 -0.0547622 0.010728255 0.018023703 0.018755713 -0.021021636
0.0022131482 0.008828643 0.015341289 0.0024838527 -0.0369657 -0.056179278 0.025115265 0.0028476364
-0.026251242 -0.034580708 -0.05439517 0.040143616 -0.03166891 0.009178692 0.012725454 0.004300965
0.0131089995 0.04689434 0.035647355 0.025999827 -0.047333322 0.00013647458 -0.04890894 -0.03253964
-0.038991697 -0.06232714 -0.05431116 -0.089256786 -0.04585721 -0.07145032 -0.12737672 -0.04725534
-0.034473024 -0.034063663 -0.04857536 -0.04165304 0.016746486 0.0047219987 0.028667327 0.033589866
0.019929761 -0.025485525 0.0010828791 0.008526526 0.062406577 0.033148497 0.007869886 0.032027114
0.05072285 0.058772687 0.012207385 0.02783681 0.052105434 0.013832395 -0.007986385 0.0023349607
0.028056452 0.009686062 -0.03424963 -0.03009993 -0.0065005724 0.03729778 -0.0008231056 -0.036462188
-5.4874785e-05 -0.05164628 -0.03658439 -0.017571885 0.013179883 -0.002511935 -0.052376326 -0.013843856
00000000: 665c b33a a209 28bd a1d8 a0bd a02b cebd
00000010: 92c0 8abd 9602 483d fd90 8c3c 8216 983c
00000020: 33f5 fd3c 11a5 b53c 0364 da3c e041 233c
00000030: a8ff 053c 80ec 4e3c ff07 77bc d6ef 7c3d
00000040: bb54 1a3d 94eb 9137 ba54 bf3c 18ab 3fbc
00000050: 7257 a53c d8e9 6a3d e533 7e3d d65c 293d
00000060: 4384 febc 7bca f4bc 168d 13bd a06e 3fbc
00000070: b261 203d b689 503d eb8c 88bc 199a 0b3d
00000080: d0ed f93c bfa9 803c 4d0b 9c3c c0ca 0f3d
00000090: ac63 8a3c a7f9 823b a3a7 033c 66fd af3c
000000a0: f381 cd3d c985 233d 24b3 243d e14b 10bb
000000b0: d50d 5cbd e990 a73d 0f15 0f3d 8da4 5dbc
000000c0: faf9 5fbd 1e45 29bd 343c 5e3d dfb1 603d
000000d0: 6c1b 2a3c ce11 30bc e435 e8bc 2282 023d
000000e0: 3c28 343d b15e e93c e159 c23a bc3c 29bd
000000f0: 3810 3a3d 1b25 ab3c b424 e2bb 79cd c7bc
00000100: c8b8 f6bc ba1c fe3c 735d bf3c b45a dbbc
00000110: 8cff 53bd 172d 50bb 67eb 403d af3d b53c
00000120: 5602 cf3c 03fb 493c eb6c 0b3c e094 233c
00000130: afc2 c9ba 8c66 803d f714 903d 7663 50bb
00000140: 13c5 3e3d a7de 923d 3b6f 923d 454f 423d
00000150: 3dcb a5bc a3c6 043d e0c4 8f3d f620 453d
00000160: c86c 303d 43fe 42bd 2062 3f3d 906f 7e3d
00000170: 86a9 f63c de52 d6ba 0fdf fcbd 9533 853d
00000180: 5e1b f53c 3da8 a8bc 1ed1 e03c a5aa 42bd
00000190: 82f8 39bc e11d 05bd 48f5 223d 411f a8ba
000001a0: ccf8 f5bc 35c7 13bb 8b7c 18bd 9ba4 993b
000001b0: 4db5 fbbc 6ea2 54bd 1b58 2abd f6f3 eabc
000001c0: 167d 89bc ebfb a3bd 59c8 c0bd 771b 3dbd
000001d0: a6dc 72bd 8e35 1ebd e60e cabd a45f c6bd
000001e0: 27b5 1b3c dde1 febb db66 f63c 8b17 633c
000001f0: 29de 6abd f30f 663c e58a d03a b729 b63c
00000200: fb8d d43b 8a26 7d3d f7cc 143d 26f4 833c
00000210: befb 303b 046a 463c 11a2 063d 46af 17bc
00000220: c201 61bd cac7 b3bc 5f0a 78bc d7c6 1dbd
00000230: ecef 163c 5a41 6dbc 9576 ffbc ad9c 0abd
00000240: e9ce 5bbd 47ea f93c 580c 2c3d 217a d13b
00000250: f112 5cba 6886 7cbd 7aa4 44bd dcfc 67bd
00000260: 14ac b9bc d0a1 913c c187 05bc 85cf fa3c
00000270: edac 7e3d ce75 803d 345e 9c3d 6465 e43c
00000280: c117 433d 6d3a 913d 059b 433d 3990 023d
00000290: ef13 9d3a 6cd6 353d d7fe c53c 5f42 ab3c
000002a0: 03fb b03c 2191 d93c 0746 3c3b 577f 0bbc
000002b0: 75a5 30bc 2f78 d63a 6762 f3bc 3003 743c
000002c0: 8276 a7bb 5ab1 37bd 617a 28bd 544e 60bd
000002d0: 90c5 2f3c 72a6 933c 95a5 993c 9135 acbc
000002e0: 770a 113b 03a6 103c 085a 7b3c 22c8 223b
000002f0: 5969 17bd 3e1c 66bd 87be cd3c 699f 3a3b
00000300: d80c d7bc 80a4 0dbd 78cd 5ebd a26d 243d
00000310: 42b7 01bd 3962 163c 6c7e 503c 1cef 8c3b
00000320: 21c7 563c 4814 403d f602 123d 97fd d43c
00000330: 96e0 41bd 9e1a 0f39 be54 48bd 4948 05bd
00000340: c2b5 1fbd be4a 7fbd 6175 5ebd 43cc b6bd
00000350: c5d4 3bbd 8c54 92bd 0b6f 02be d18e 41bd
00000360: 9633 0dbd 5786 0bbd f5f6 46bd 619c 2abd
00000370: ed2f 893c ffba 9a3b bed7 ea3c 8795 093d
00000380: bd43 a33c 05c7 d0bc 65ef 8d3a d8b2 0b3c
00000390: 0a9e 7f3d b8c6 073d b2f0 003c dd2e 033d
000003a0: c3c2 4f3d a1bb 703d 7c01 483c 060a e43c
000003b0: 826c 553d 45a1 623c 54d9 02bc 2406 193b
000003c0: a5d6 e53c 4ab2 1e3c 5749 0cbd 2194 f6bc
000003d0: c102 d5bb 8fc5 183d afc5 57ba 6059 15bd
000003e0: 5a29 66b8 0d8b 53bd 83d9 15bd eaf2 8fbc
000003f0: 70f0 573c 479f 24bb 8f88 56bd 57d1 62bc

55 f4 [24]
0.7261002 0.84942293 0.26526996 1.4939055 0.3632676 1.4795843 -0.08929519 0.61462814
1.2582785 0.85129213 0.5641545 0.7483449 0.16055319 0.11981474 1.1379982 1.0130185
0.24150145 1.2646906 0.8842167 0.67456114 0.5424136 0.28950065 1.5037313 0.7879055
00000000: b4e1 393f c873 593f 77d1 873e 4c38 bf3f
00000010: 36fe b93e 0563 bd3f 66e0 b6bd 4558 1d3f
00000020: 450f a13f 48ee 593f 6e6c 103f 8893 3f3f
00000030: 0e68 243e 6e61 f53d eda9 913f 97aa 813f
00000040: 284c 773e 62e1 a13f 075c 623f 0ab0 2c3f
00000050: 9edb 0a3f 6e39 943e 447a c03f 2db4 493f

57 f4 [24, 24, 5, 5]
0.02042129 0.011846502 0.017451903 0.011188163 -0.030312162 0.0038649333 -0.0020033626 0.008290552
0.020684905 0.004938059 -0.014412967 -0.01018397 -0.018968765 0.023714118 0.018265942 -0.0027181688
0.0053930287 0.011034228 0.032626893 0.012805832 -0.0050765118 0.0041371873 -0.0032905468 -0.0009928904
0.0010005139 0.008521953 0.027981771 -0.025418337 -0.014192822 -0.0005147044 -0.013788684 0.021705108
0.011870607 0.030472133 0.027938224 -0.04757211 -0.0154167535 -0.010534916 6.742938e-05 -0.022564951
-0.037891015 -0.023334911 0.005023132 -0.013165147 -0.03484047 -0.0061635594 -0.0027913738 0.028197946
0.016541978 -0.015596146 -0.05843496 -0.052149966 -0.061952762 -0.08335459 -0.04145257 -0.012203069
-0.011607925 0.0056073596 -0.016082313 0.00022468927 -0.029759998 -0.022641163 -0.04103684 -0.03318476
-0.0059070108 -0.017678907 -0.030239662 -0.033315044 -0.02203008 -0.012463276 -0.022691881 -0.019014476
-0.03059439 -0.0021871487 -0.019709112 0.0028829623 0.019129932 -0.007215727 0.0044329767 -0.0064004916
0.017852873 0.029246775 -0.0017875739 -0.0011058766 -0.011874841 0.0007193616 0.0051113158 -0.03780076
-0.018904988 -0.023948563 0.013984782 0.012379812 -0.03510486 -0.0078094224 -0.008918378 0.009101474
-0.003723689 -0.023962524 0.0086395 0.00374078 -0.029894097 -0.021487566 -0.0074206335 -0.011098653
0.007561026 -0.021515748 -0.0057187434 0.007782259 0.0016665396 0.012631193 -0.048225123 -0.018680105
-0.008334952 -0.0028549193 0.012224758 -0.04906754 -0.0414104 -0.019600304 -0.01333353 0.0010009082
-0.0121647995 -0.0037204477 0.0017382912 0.004747514 0.017348358 -0.014994648 -0.01826665 -0.015888702
-0.023854995 0.01384994 0.004396298 -0.007192178 -0.01588958 -0.004949987 0.006871972 -0.012446318
-0.040596217 -0.02890715 -0.02031902 -0.018002827 0.0139114335 -0.01890019 -0.023592867 -0.017090054
-0.00832778 0.046781585 0.030168202 0.009862735 0.0050333627 0.005748102 -0.0137007 -0.008158436
-0.030203432 -0.01637433 0.0075430297 -0.010827237 0.0057533444 0.0020665277 0.0011907702 0.007424109
-0.016741838 -0.0042476133 -0.009531348 -0.0020943428 -0.0014760564 0.012086572 0.020696344 0.0005904997
0.009465954 0.004275273 0.0029079283 -0.01877959 -0.0025713167 0.004609358 -0.003871229 0.0034997491
0.0025694869 0.0070278496 -0.0015963094 0.0067877653 0.007933287 0.023724547 0.025665672 0.017547214
0.019725926 0.0035665235 0.014566906 -0.0005040936 0.0082252715 -0.003729965 0.012662764 0.019514967
-0.0028960563 -0.003077985 0.0064594415 -0.010078485 -0.007699752 -0.012222362 -0.014884051 0.0009584076
0.0018192454 -0.04901224 -0.02265231 -0.03121943 -0.021682126 0.014258001 -0.015239643 0.0037211243
-0.011361384 0.011985946 0.0145045165 -0.01301075 -0.0051474012 -0.016282545 -0.013291213 0.0016319625
-0.0060427533 0.0048109596 -0.02043764 0.003199904 -0.01182379 -0.012497661 0.00883152 -0.007058245
-0.002060811 0.0042569935 -0.013262166 0.012890796 0.0048208586 0.01224733 -0.016468234 -0.05115633
-0.023203481 -0.023371872 -0.005414446 -0.014232726 -0.03545898 -0.0062951203 0.0034738674 0.020083968
-0.017005414 -0.027265528 -0.00697242 0.0042229136 0.010631769 -0.024039637 -0.007958445 -0.00047715692
-0.00044543276 -0.007567688 0.026138786 -0.028863821 -0.035927802 0.017871993 -0.038320318 0.020539949
00000000: 8d4a a73c d517 423c 4bf7 8e3c 8f4e 373c
00000010: 3651 f8bc d24a 7d3b d94a 03bb 18d5 073c
00000020: 6473 a93c 71cf a13b 5d24 6cbc abda 26bc
00000030: 6264 9bbc 1c44 c23c 75a2 953c 4e23 32bb
00000040: 01b8 b03b e8c8 343c c7a3 053d 8dcf 513c
00000050: de58 a6bb 3e91 873b 37a6 57bb e023 82ba
00000060: ad23 833a a99f 0b3c 073a e53c 1e3a d0bc
00000070: 0389 68bc 3aed 06ba efe9 61bc e9ce b13c
00000080: ef7c 423c b2a0 f93c b4de e43c f9da 42bd
00000090: 8d96 7cbc a49a 2cbc df68 8d38 22da b8bc
000000a0: 9c33 1bbd db28 bfbc 1699 a43b a1b2 57bc
000000b0: e1b4 0ebd aff7 c9bb 7bef 36bb 61ff e63c
000000c0: 0b83 873c fa86 7fbc 7f59 6fbd 349b 55bd
000000d0: 2ec2 7dbd d0b5 aabd 2cca 29bd 62ef 47bc
000000e0: 2b2f 3ebc f1bd b73b 0ebf 83bc 919a 6b39
000000f0: 3dcb f3bc f679 b9bc 3f16 28bd beec 07bd
00000100: 998f c1bb 5bd3 90bc 2bb9 f7bc 5b75 08bd
00000110: 6d78 b4bc c532 4cbc 53e4 b9bc 3fc4 9bbc
00000120: 16a1 fabc 4456 0fbb 0175 a1bc 15f0 3c3b
00000130: 60b6 9c3c e871 ecbb 8142 913b 37bb d1bb
00000140: 3040 923c ef96 ef3c 074d eaba 10f3 90ba
00000150: b18e 42bc 8a93 3c3a d37c a73b f8d4 1abd
00000160: a2de 9abc c72f c4bc 6d20 653c b2d4 4a3c
00000170: 1dca 0fbd 2fe6 ffbb 631e 12bc 591e 153c
00000180: 2209 74bb 0e4d c4bc b08c 0d3c e027 753b
00000190: 77e4 f4bc b106 b0bc c928 f3bb 20d7 35bc
000001a0: 7cc2 f73b cb41 b0bc 4c64 bbbb 5202 ff3b
000001b0: ca6f da3a 10f3 4e3c b587 45bd 0507 99bc
000001c0: 538f 08bc 9919 3bbb 5a4a 483c 0bfb 48bd
000001d0: f49d 29bd d190 a0bc e174 5abc e830 833a
000001e0: de4e 47bc c1d2 73bb 60d7 e33a 0991 9b3b
000001f0: 251e 8e3c 1dac 75bc f1a3 95bc 0629 82bc
00000200: 8d6b c3bc dcea 623c d20e 903b 5dac ebbb
00000210: dd2a 82bc 8033 a2bb 472e e13b a4eb 4bbc
00000220: 3848 26bd b0ce ecbc 1374 a6bc aa7a 93bc
00000230: c8ec 633c 92d4 9abc d445 c1bc 7100 8cbc
00000240: 3e71 08bc 0c9e 3f3d 4e23 f73c 4f97 213c
00000250: e8ee a43b 935a bc3b e778 60bc f6aa 05bc
00000260: 306d f7bc 7523 86bc 852b f73b b964 31bc
00000270: 8d86 bc3b 956e 073b 9e13 9c3a f145 f33b
00000280: 2e26 89bc 902f 8bbb 5f29 1cbc 3e41 09bb
00000290: 3c78 c1ba c206 463c 618b a93c c4cb 1a3a
000002a0: 1717 1b3c 9717 8c3b f192 3e3b a8d7 99bc
000002b0: 8983 28bb 190a 973b 72b4 7dbb 0c5c 653b
000002c0: d664 283b e049 e63b 413b d1ba e76b de3b
000002d0: 9efa 013c fb59 c23c d140 d23c 2dbf 8f3c
000002e0: 4498 a13c 56bc 693b 08aa 6e3c 2625 04ba
000002f0: 4ac3 063c 6e72 74bb 7b77 4f3c dadd 9f3c
00000300: c3cb 3dbb 05b8 49bb b9a9 d33b 3b20 25bc
00000310: 344e fcbb 4d40 48bc 3cdc 73bc a53d 7b3a
00000320: bf73 ee3a 0fc1 48bd 5691 b9bc e4bf ffbc
00000330: b79e b1bc 649a 693c b2af 79bc 1bde 733b
00000340: 1925 3abc b460 443c 5aa4 6d3c 0a2b 55bc
00000350: 88ab a8bb f962 85bc 63c3 59bc 93e7 d53a
00000360: 4a02 c6bb 41a5 9d3b d66c a7bc 7bb5 513b
00000370: 92b8 41bc fdc2 4cbc 14b2 103c da48 e7bb
00000380: ac0e 07bb 407e 8b3b 8e49 59bc eb33 533c
00000390: 4bf8 9d3b 06a9 483c 64e8 86bc 4d89 51bd
000003a0: 3a15 bebc 5e76 bfbc aa6b b1bb 6130 69bc
000003b0: 6f3d 11bd 4c47 cebb d3a9 633b 2287 a43c
000003c0: f04e 8bbc f55b dfbc e678 e4bb 5e60 8a3b
000003d0: df30 2e3c c6ee c4bc 2364 02bc eb2a fab9
000003e0: f988 e9b9 5efa f7bb 0221 d63c d273 ecbc
000003f0: 0829 13bd 4968 923c c4f5 1cbd 6543 a83c

58 f4 [24]
0.33036706 0.75493765 0.13353878 0.46850476 0.2881029 0.32860687 0.6734332 0.27734342
0.4066426 0.24651375 0.34830672 0.24021849 0.5324627 0.4740036 0.48767945 0.3961932
0.23018867 0.28749242 0.5184692 -0.10692787 0.42165592 0.31325033 0.1613611 0.51300484
00000000: df25 a93e 9843 413f 64be 083e dbdf ef3e
00000010: 3982 933e 293f a83e 1e66 2c3f f5ff 8d3e
00000020: 7533 d03e 1a6e 7c3e 4255 b23e d6fb 753e
00000030: 7a4f 083f 9ab0 f23e 1fb1 f93e d6d9 ca3e
00000040: 94b6 6b3e 3532 933e 66ba 043f 00fd dabd
00000050: 49e3 d73e 5962 a03e d83b 253e 4954 033f

fc1.bias f4 [10]
0.044669826 -0.08125199 -0.055866145 0.17083539 0.14289017 0.055683967 -0.11570282 -0.10821533
0.022038894 -0.18169
00000000: b5f7 363d 7167 a6bd e6d3 64bd 79ef 2e3e
00000010: cd51 123e df14 643d 9af5 ecbd 00a0 ddbd
00000020: e98a b43c f20c 3abe

fc1.weight f4 [10, 2400]
-0.5945414 -0.3119958 -0.22640228 -0.30053782 -0.3264743 -0.1733709 -0.017163226 -0.054838467
-0.18388876 -0.31294742 -0.28517237 -0.03332514 -0.12736383 -0.09404787 0.097765654 0.19339405
0.105932325 0.1358894 -0.069336094 -0.21789898 -0.28173074 -0.08188449 -0.13729517 -0.25712347
-0.2460548 -0.026644742 -0.11105155 -0.015163506 -0.019962985 -0.06303123 -0.25105888 -0.073163554
-0.039435927 -0.07108828 -0.22611855 -0.19800617 -0.34262013 -0.16648073 -0.1457898 -0.21324316
-0.35355023 -0.24057639 -0.068636194 -0.04324914 0.010678977 -0.05621147 -0.044264637 -0.051509526
-0.07970652 -0.32637244 -0.28084803 -0.071685374 0.00019718692 -0.009749965 -0.16573454 -0.07760022
-0.07961198 -0.1815887 -0.36801344 -0.4474054 -0.0962819 -0.06903129 0.017215336 0.022483235
-0.05874692 0.012037024 -0.10489535 -0.14771415 -0.0186718 -0.14332362 -0.0021095881 -0.06957378
-0.052661706 -0.019391455 -0.07864448 0.14327271 -0.016083395 0.026887601 -0.1171871 0.013936711
0.012424495 -0.18275768 -0.1286323 0.121969074 0.0075390995 0.023736052 -0.0019252165 -0.043115303
-0.047347274 0.059001636 0.005573662 -0.07168204 -0.16238858 0.033529002 -0.030731995 0.09627377
0.015602892 0.022780403 -0.020462597 -0.11429389 -0.09605943 -0.14417252 -0.04652769 -0.019752463
0.035102718 -0.0029964086 -0.0410179 -0.25729394 -0.2324894 -0.07633799 -0.23101003 -0.059140764
-0.09035633 -0.08104905 0.0697508 0.046347868 -0.14955701 -0.05114444 -0.063372 0.045101944
-0.17160961 -0.17958091 -0.007956322 -0.17864689 -0.05765807 0.07905556 -0.1041569 -0.022113407
-0.07914524 -0.08828075 -0.08410093 -0.23864888 -0.16436985 -0.15732579 -0.029510254 -0.04252989
-0.19178563 -0.1683959 -0.010725325 -0.05400485 -0.061019186 -0.26683787 -0.0011992062 -0.09587586
-0.09984754 -0.01038744 0.050274648 0.008118647 -0.04881875 -0.049232733 0.053213477 -0.002891241
-0.01749226 0.017664596 0.12763642 0.09990091 0.21248892 0.0022011693 -0.092152834 0.009972867
0.14798732 0.038246907 -0.04563459 -0.058408633 0.017865442 0.087347426 0.0054162596 0.10210696
0.067027085 -0.037724007 -0.09793749 -0.02883246 0.033882882 0.04840414 0.2369004 0.27149302
0.098460846 0.07340767 -0.07005703 -0.1571278 -0.09446767 -0.19486283 -0.07317038 0.12268749
0.35855433 0.10846708 -0.09756351 -0.058184132 -0.057513285 -0.1115437 -0.080199905 -0.04076835
0.0067588533 0.06572717 0.311766 0.21283299 0.022336014 -0.047355812 0.021087766 -0.040549427
0.051648356 0.038747482 0.12173874 0.27013573 0.08479216 0.084729955 0.19969691 -0.17304887
-0.017472837 -0.051771946 -0.054782916 -0.0930769 0.009476934 0.047045328 -0.021211624 -0.041706912
0.0044020223 -0.18285167 -0.09553346 -0.2904735 0.054782446 0.11358788 0.1238503 -0.010015467
0.07942248 -0.017540729 0.019669568 -0.07297624 0.028925775 -0.17693135 0.08178606 0.059296526
-0.024620023 -0.012872634 0.045232225 0.08547429 -0.10833919 -0.08561941 0.024468513 -0.26046833
0.16683847 0.09694141 -0.0670256 0.0060333475 0.036366478 -0.09245389 -0.15952745 -0.07064597
0.1708307 -0.09998737 0.039514937 -0.019740732 -0.08709989 0.0038737268 -0.18084934 -0.08591734
00000000: dd33 18bf eabd 9fbe 00d6 67be 18e0 99be
00000010: a427 a7be 2488 31be e599 8cbc 4d9e 60bd
00000020: 564d 3cbe a53a a0be 1d02 92be f17f 08bd
00000030: aa6b 02be 2b9c c0bd 5c39 c83d 1709 463e
00000040: 0cf3 d83d 9726 0b3e 1500 8ebd e920 5fbe
00000050: 033f 90be 0eb3 a7bd 1b97 0cbe b0a5 83be
00000060: caf5 7bbe 1346 dabc ff6e e3bd 5b70 78bc
00000070: 6a89 a3bc 8416 81bd ca8a 80be c6d6 95bd
00000080: 9187 21bd bb96 91bd 9f8b 67be 21c2 4abe
00000090: e86b afbe ed79 2abe ec49 15be 6a5c 5abe
000000a0: 8904 b5be a859 76be 2291 8cbd 0326 31bd
000000b0: e0f6 2e3c 003e 66bd d64e 35bd a7fb 52bd
000000c0: 2c3d a3bd 4a1a a7be 50cb 8fbe c8cf 92bd
000000d0: f6c3 4e39 51be 1fbc 51b6 29be ddec 9ebd
000000e0: 9b0b a3bd 63f2 39be 426c bcbe 5212 e5be
000000f0: 722f c5bd 4760 8dbd 2d07 8d3c c32e b83c
00000100: 9ca0 70bd f036 453c 60d3 d6bd 6142 17be
00000110: 9af5 98bc 6dc3 12be 0441 0abb b37c 8ebd
00000120: cdb3 57bd d4da 9ebc 5b10 a1bd 15b6 123e
00000130: 53c1 83bc 6343 dc3c caff efbd cd56 643c
00000140: 1c90 4b3c d424 3bbe 30b8 03be ecca f93d
00000150: 8d0a f73b 1c72 c23c 8c57 fcba ac99 30bd
00000160: 37ef 41bd b3ab 713d 44a3 b63b 09ce 92bd
00000170: 3149 26be b555 093d aac1 fbbc 2f2b c53d
00000180: 46a3 7f3c f89d ba3c 2da1 a7bc ea12 eabd
00000190: ceba c4bd f6a1 13be d293 3ebd ebcf a1bc
000001a0: dec7 0f3d 655f 44bb 6302 28bd 08bc 83be
000001b0: b411 6ebe 1857 9cbd e58d 6cbe 963d 72bd
000001c0: bd0c b9bd 0bfd a5bd 82d9 8e3d 43d7 3d3d
000001d0: 7925 19be d57c 51bd 2ec9 81bd d1bc 383d
000001e0: 6eba 2fbe 0fe4 37be 3c5b 02bc 36ef 36be
000001f0: de2a 6cbd e2e7 a13d 3650 d5bd 2d27 b5bc
00000200: e616 a2bd 8acc b4bd 1c3d acbd 5f60 74be
00000210: 9250 28be 031a 21be 7dbf f1bc d233 2ebd
00000220: 7463 44be fa6f 2cbe 46b9 2fbc 3134 5dbd
00000230: 41ef 79bd f99e 88be af2e 9dba 905a c4bd
00000240: de7c ccbd 1530 2abc caec 4d3d 1304 053c
00000250: 2bf6 47bd 43a8 49bd 60f6 593d fa7a 3dbb
00000260: ee4b 8fbc 58b5 903c 1fb3 023e d998 cc3d
00000270: b296 593e 7e41 103b a0ba bcbd 3c65 233c
00000280: fd89 173e caa8 1c3d 56eb 3abd e43d 6fbd
00000290: 8c5a 923c 35e3 b23d e17a b13b 741d d13d
000002a0: 7f45 893d 7d84 1abd 7393 c8bd 0d32 ecbc
000002b0: c7c8 0a3d 6b43 463d 0596 723e 2201 8b3e
000002c0: d7a5 c93d c356 963d 0f7a 8fbd 1ce6 20be
000002d0: 4478 c1bd 1f8a 47be 5ada 95bd 9443 fb3d
000002e0: 6f94 b73e fd23 de3d 61cf c7bd 7c52 6ebd
000002f0: 0d93 6bbd 0671 e4bd d93f a4bd b7fc 26bd
00000300: 5f79 dd3b f79b 863d cb9f 9f3e e4f0 593e
00000310: 04fa b63c 2bf8 41bd 40c0 ac3c 2817 26bd
00000320: 3a8d 533d aeb5 1e3d 2952 f93d 3b4f 8a3e
00000330: 83a7 ad3d e686 ad3d 597d 4c3e b933 31be
00000340: 3223 8fbc d20e 54bd 0d64 60bd 1a9f bebd
00000350: 2445 1b3c 9ab2 403d 00c4 adbc ded4 2abd
00000360: d73e 903b 783d 3bbe 0ca7 c3bd f1b8 94be
00000370: 8f63 603d c3a0 e83d 3aa5 fd3d ea17 24bc
00000380: 41a8 a23d 93b1 8fbc 1322 a13c 9174 95bd
00000390: bff5 ec3c 7e2d 35be 737f a73d eae0 723d
000003a0: eeaf c9bc bee7 52bc 6d45 393d 250d af3d
000003b0: f0e0 ddbd 3b59 afbd 3172 c83c 1b5c 85be
000003c0: b4d7 2a3e 3889 c63d b844 89bd 63b3 c53b
000003d0: 04f5 143d 7758 bdbd 2a5b 23be d6ae 90bd
000003e0: 3eee 2e3e 2ec6 ccbd 6ada 213d 51b7 a1bc
000003f0: 6d61 b2bd 5ade 7d3b 9230 39be 6ef5 afbd
