Samples/Tutorial Samples/PyTorch Image Classification/PyTorchTraining - Image Classification/myFirstModel.pth (torch, 210335 bytes, 26 tensors)

conv1.weight f4 [12, 3, 5, 5]
00000000: 62ba 96bd bf15 a33d 6207 31bd c385 073e
00000010: b809 683d bbe4 043d 953b 5a3e 881e fd3d
00000020: ac28 1abd 365f d8bd 50ad 34bc 8cfd 1c3c
00000030: 13eb 0b3e 7e7f efbd 641d a4bc b663 c03d
00000040: a878 0ebe 76b9 b1bd dc4e 51be 4b93 6fbd
00000050: 52f2 983c abd2 3cbd ce3f 11bd f893 283c
00000060: d773 0d3e bbcc 173d bd28 f13c 07fc 123c
00000070: abb0 95bd 85f3 163d 130e df3d 3a4f 203e
00000080: 550f 3c3d f6b2 943d bf99 1ebd 7bd3 223e
00000090: f8f6 8c3d 0387 de3d ec57 58be e373 053c
000000a0: 4fa8 023e 15a8 e9bd 297a a2bc fc51 67be
000000b0: 40ff ac3d 5d59 313c 8bd2 1c3d fa36 c1bd
000000c0: f166 6ebd fd29 a33d 5ec4 36bd 91d1 c0bd
000000d0: de8b 9a3d f277 283c b0f7 4bbd 6870 a03d
000000e0: e79c da3d 772d 953b 2880 923c eeba 58bd
000000f0: f1e4 9fbd 9a1f a43d 530d 073d 2d3b 06be
00000100: bb9c 21be 8774 f7bb 27d1 f3bd 347a 40be
00000110: 593b 15bd a266 16bd 199b 2a3c a838 383d
00000120: bb2b a0bd ae22 14bd a7c6 0c3e 4146 1abd
00000130: 4da0 513d 09d3 d8bd 4daf 223d 0ed1 e83b
00000140: 5f13 853c 7af5 8d3d f42f 8bbd f00f 6f3c
00000150: 1815 f8bc 1815 bfbd 7923 18bd 7064 57be
00000160: baa8 3dbe 7708 0abe 9e5b d9bb 2c91 92bd
00000170: 80c4 b8bd 0e56 52bd 9987 47bd fd06 5dbd
00000180: 99a6 34bd 381b 01bc baf5 f0bd 4a69 61bc
00000190: 6f11 063e caac fd3d f632 0fbc 270b a33d
000001a0: d295 16bd b806 743c a9d8 f13d e5b1 6fbc
000001b0: f759 8e3d bd44 97bd 1f7d 673b e0b8 c0bd
000001c0: 3a0f acbd 66f5 adbd 5019 31bc 5ea0 98bd
000001d0: 8eb7 20be 3955 0d3d af16 e1bb 4d87 e13d
000001e0: 892d 6abc 23e5 7cbd 884a 62bd 944b a6bd
000001f0: 9ef1 393d bf7b 953d c758 823d 8cac 013e
00000200: 3fbb 673d 0115 c7bd c713 7e3d d0db b63d
00000210: b8e6 023e 9a20 4d3d 7290 1e3e 0332 db3d
00000220: 7070 7f3c 9320 87bc f48d 9f3d 5b9d 0f3e
00000230: 9bf8 f7bb 9b3a bcbd 177d c5b9 9d05 893d
00000240: a189 c53d 89ca 4dbd 04ce 37bc 6842 323d
00000250: 099e 043e 7014 0b3e 9211 d43d ba7d d3bc
00000260: d614 4e3d cd3a 503c 01f3 8a3d c878 483d
00000270: 0143 ea3c 1c53 1fbe 1391 1b3e 4198 2b3e
00000280: 6f1c 103d a8e6 13bd 73c9 29be 05a8 c73d
00000290: ff9b 0f3e 8b05 8abc d41d 283d bf8e 94bd
000002a0: d37d 0bbd bc00 013d b8be 9abd 5117 73bd
000002b0: a838 55bd 6b97 f5bd ca55 bcbd 81fe 31bd
000002c0: d7ed 38bd 481f 853c adb6 483c 3317 97bd
000002d0: 1277 9a3d 4e9b 5cbe 5fb6 0ebe 62f2 1b3e
000002e0: 8349 303e 87e9 a3bd 2cac ebbd 8710 35be
000002f0: 99a7 39bc 3c77 5e3b 8bc6 453c 3b49 a33d
00000300: 3b5b c7bc d56b f7bd 8343 e1bd 0378 fa3d
00000310: 92b7 183e d50f a53d a52b a23d a805 d63d
00000320: f771 ca3d 9bcf a0bd 5ffe c4bd a204 dcbc
00000330: 830c 6ebd 1c83 113e dd94 23be cf59 05be
00000340: 7ab1 7abc 1293 a83b f7d6 fe3c 2a23 35bd
00000350: 18b7 6abd 60e5 dd3d 6255 99bc 2c4e 19bd
00000360: 5431 403e 0faa 69bd 0915 48bd 2baa f13b
00000370: bde0 3d3c 225a 1e3e a2a8 2c3e f7f1 b5bd
00000380: 3bb6 08be 4130 513d 7360 fe3d bede 853d
00000390: 7d5a 243c 002f 533e 6c3b abbd 557d 863d
000003a0: f6fe f1bd 9c5d 3abe 8e68 293c d7e5 03be
000003b0: deea 073e 81ba 243e 378f 11be 2f4d 3ebd
000003c0: a2f8 04be e382 093c 03cd 163a a6ec debd
000003d0: fda1 14bc 457a 853c 5db7 283d 57d2 4ebc
000003e0: b92b 073d 0e56 f03c 3438 863d d863 07bd
000003f0: 3e17 533c 0243 debd f75b 39bd 2bbc e0bd
-0.073597685 0.07963132 -0.04321993 0.1323462 0.056649894 0.032444697 0.21311791 0.12359339
-0.037636444 -0.10565035 -0.011027649 0.009581935 0.13663892 -0.11694239 -0.020033546 0.09394018
-0.13913214 -0.08677952 -0.20440239 -0.05849008 0.018670235 -0.046099346 -0.03546124 0.010289185
0.1381372 0.03706048 0.02943837 0.008971221 -0.07309087 0.036853332 0.10891356 0.15655223
0.04591306 0.072606966 -0.038720842 0.15900986 0.06883043 0.10865595 -0.2112729 0.008145305
0.12759517 -0.11409012 -0.019833641 -0.22589868 0.084471226 0.0108245285 0.038286727 -0.09434314
-0.05820364 0.07966993 -0.044620864 -0.094149716 0.07546209 0.010282503 -0.04979676 0.0783394
0.10674458 0.004552539 0.017883375 -0.052912645 -0.07807339 0.0801384 0.03297169 -0.13108511
-0.15782444 -0.007551733 -0.11905127 -0.18796617 -0.03643355 -0.036718972 0.010412955 0.044975907
-0.07820841 -0.036165886 0.13747655 -0.037664656 0.051178265 -0.10587127 0.03971796 0.0071049994
0.016244588 0.069315866 -0.06796256 0.014591202 -0.030283496 -0.09330195 -0.037143204 -0.21034408
-0.18521395 -0.13479792 -0.006633236 -0.071565956 -0.090218544 -0.0513516 -0.0487133 -0.053961743
-0.044104192 -0.007880025 -0.117656186 -0.013758013 0.13092588 0.123864725 -0.008740177 0.079611115
-0.036763974 0.01489418 0.11808903 -0.014629816 0.06950753 -0.07386158 0.003532238 -0.09410262
-0.08401342 -0.08494072 -0.010809258 -0.074524626 -0.1569502 0.034505103 -0.006869159 0.11012135
-0.014293083 -0.06174196 -0.05524686 -0.08119884 0.04539644 0.07298993 0.06364589 0.12663478
0.056575056 -0.09720803 0.06203058 0.08928645 0.12783325 0.05007992 0.15484789 0.10702898
0.015590772 -0.016495025 0.07790747 0.1402487 -0.007567478 -0.091908656 -0.00037667967 0.06690524
0.09645391 -0.05024198 -0.011218552 0.04352036 0.1295091 0.13582015 0.10354914 -0.025816787
0.05031284 0.012709332 0.067846306 0.04894331 0.028596403 -0.15559047 0.1519206 0.16757299
0.035183366 -0.036108643 -0.16580753 0.09748844 0.14024352 -0.016848346 0.04104407 -0.07253789
-0.034055542 0.03149484 -0.07555908 -0.059348408 -0.052055985 -0.11991771 -0.091960505 -0.043455604
-0.045148697 0.016250268 0.012250585 -0.07377472 0.07542242 -0.21543619 -0.13936757 0.1522918
0.17215542 -0.08003526 -0.115074486 -0.17682086 -0.011331462 0.003394558 0.012071262 0.07972952
-0.024335494 -0.12081114 -0.10999205 0.12229922 0.14913777 0.0805966 0.07918481 0.104502976
0.09885018 -0.078520976 -0.0961883 -0.026857678 -0.0581174 0.1421017 -0.15974756 -0.1302254
-0.015301103 0.0051444853 0.031108363 -0.04422299 -0.057303518 0.108347654 -0.018717472 -0.037428066
0.18768817 -0.057046946 -0.048848186 0.007375022 0.011589226 0.1546407 0.16861203 -0.08884042
-0.13350765 0.05107141 0.1242074 0.06536625 0.01003134 0.20623398 -0.08360943 0.06566874
-0.11816208 -0.18199772 0.010339869 -0.12880646 0.13273188 0.1608677 -0.14214788 -0.046460327
-0.12985471 0.008393022 0.0005752595 -0.10884981 -0.009071824 0.016293654 0.041190494 -0.012623391
0.03300068 0.02933791 0.06553689 -0.033054203 0.012883959 -0.108526245 -0.04525372 -0.1097339

conv1.bias f4 [12]
00000000: 92be 96b8 0040 b2ba 5758 cc39 31b1 65ba
00000010: 8726 85b9 e680 d9ba cfdb 09ba ee56 4939
00000020: 0a27 88ba 399b a539 9d0d 22ba 9850 1eba
-7.188054e-05 -0.0013599396 0.0003897573 -0.00087620603 -0.00025396442 -0.0016594201 -0.0005258889 0.00019201238
-0.0010387611 0.00031586902 -0.0006181838 -0.0006039231

bn1.weight f4 [12]
00000000: 635c 4a3f aeb1 573f 2e46 8d3f 6540 9e3f
00000010: 964a 4a3f 909b 853f 7ee9 863f 0386 623f
00000020: 644f 8a3f b642 663f 4ae7 693f a558 533f
0.7904722 0.8425549 1.1037042 1.2363402 0.7902006 1.0438099 1.0540006 0.88485736
1.0805478 0.8994554 0.91368544 0.82557136

bn1.bias f4 [12]
00000000: 708e 953d b072 7b3c cc13 b13e a5b6 353f
00000010: 0b46 343d 7fe5 ec3e 4a17 993e 2448 9fbd
00000020: c6da a43e 0ace 703e b542 dbbd 9bbd b9bd
0.073025584 0.015347168 0.34585416 0.7098182 0.04401211 0.46268842 0.2990058 -0.077774316
0.3219816 0.23516098 -0.10706083 -0.090693675

bn1.running_mean f4 [12]
00000000: 1ee0 5f3d 4771 bcbd 6005 883c f97a d23c
00000010: 919c 3f3c 973d c1bb 15af b23c a476 ddbd
00000020: 7e7e 58bc 094c c8bc a990 033e f361 9bbd
0.054657094 -0.092012934 0.016604125 0.025693404 0.011695043 -0.0058972347 0.021812001 -0.108136445
-0.013213752 -0.024450319 0.12848152 -0.07587042

bn1.running_var f4 [12]
00000000: cd2d 193e 8f34 7e3e 1f11 933d ec93 983d
00000010: fc29 c43d 9c91 aa3d cfbf c73d f4b0 823e
00000020: 786e cf3d 84f0 253e 2515 fd3e 383b 243e
0.14958878 0.24824737 0.07181 0.07450089 0.095783204 0.08328554 0.097533815 0.2552563
0.10128492 0.1620503 0.49430194 0.16038215

conv2.weight f4 [12, 12, 5, 5]
00000000: 719c 10bd c1aa 9cbd 22e6 f3bc 5bcd 12bc
00000010: 3f89 353c cccf e1bd 18ee afbd b2ab 51bd
00000020: be63 9cbc ecbd 56bd 07ee ecbd 9fa3 90bd
00000030: d0f5 6eba 6345 1abd ad7e d0bc 36dd 11be
00000040: 110c 17bd 146b 83bb 084c 453c 56f5 e63c
00000050: 429c 43bd 7cbd 93bd 8b7c a33c 8874 3b3d
00000060: 0653 5e3d 4445 f63b 9469 ff3c 7774 ad3d
00000070: 01e1 59bd 5e70 0abd f2c4 553d ccd6 6b3d
00000080: 1452 e63d 6f7d 153b 7820 dbbc d596 d7bc
00000090: a5d1 403d 18f3 c63c 03e4 8b3b 9422 91bd
000000a0: f3e6 12bd e343 073d 021f 873c 377a cb3c
000000b0: 8046 273d 64bd 09bd ca24 44bd c6cd 8f3d
000000c0: 91b1 0fbd eedf 713c 21a1 84bc dda8 6cbd
000000d0: ab3c 84bb c3e9 223d b446 d73c acc6 70bc
000000e0: 90f6 5ebd af5e bcbd 6cd5 e1bd f907 82bc
000000f0: 7116 9dbc a954 cbbd 87cf 0bbe abff 9fbd
00000100: 859a 9dbd db35 a23c ccad 7bbd 2346 9dbc
00000110: 16ea 1dbd a364 6abd 45b1 edbc 13ee 933c
00000120: d073 403d 86b9 123d 6efb 0cbc 0bbe 1ebd
00000130: c0bf d83d 3009 813d 5a30 6b3d 9b73 053d
00000140: bb79 14bc 3109 663d a658 b53d 4ff3 df3d
00000150: cd9b a73b 174f b5bd c742 87bc 8a54 17bd
00000160: 043b 4d3d eec5 b8bb 5678 debd 19a0 82bd
00000170: ca8a 8cbd 79d7 3cbd c000 8ebd 0426 27be
00000180: 3699 003d efef e7bc c6a4 39bd 630d b7bd
00000190: ce86 e8bc 3bd3 973d 6430 113d 42d7 343d
000001a0: 2846 9b3d 3742 003d f933 87bd cefa 963c
000001b0: e034 8dbd a15c d3bb 8956 933c 56a3 5abd
000001c0: 20d8 57bd 8d18 babd c477 14bd be76 9fbc
000001d0: d9e2 a1bd e22c c5bd 036b 1ebd b3c2 b73c
000001e0: 4152 013d b423 a6bc eaea 503d da8a 2d3b
000001f0: 692b 193d c067 e2bd 71f9 bdbd b958 37be
00000200: e5b1 45bd 7269 49bd 0ec1 5fbd bb51 a73c
00000210: fd38 063d 0cfe 693d 0c0d b43d 5a09 3bbd
00000220: 94ae 0c3e ba4c bf3d c579 063e bfbb 3b3e
00000230: 4735 a3bc 3ddd 943d 06c5 643d c434 2b3e
00000240: b816 d23d 578c ddbd 28ca 8b3d 83b0 133b
00000250: ade6 963d baf4 373d ba12 d4bb fadf 56bd
00000260: 24ee 8a3c 5427 afbd 312d fabd b379 08bc
00000270: 2371 4d3a f1f8 23bd f359 94bd 9b90 69bd
00000280: f83d ae3c dfb4 bf3c 280c 0e3b cc42 4e3d
00000290: 003a 7abc 5a99 773d 15dd cd3d 7d39 ce3d
000002a0: 1a14 75bc 52df c83c fe05 243c 64bc 723d
000002b0: 42f4 5a3d befa d33d 285e 683d b166 df3d
000002c0: e546 503e c580 583e 2773 1a3e 0649 d03d
000002d0: a2e3 db3b 9bfa 363d 57be 163d e5c2 9d3d
000002e0: 5489 7bbc d241 ee3c 18a4 f23d 62cd 323d
000002f0: fe3e 783d 06ce bcbc 0824 233d dbcb 733d
00000300: 9cb0 723d a1b2 dbbc f7da debd 8f6e 8abc
00000310: a5ab f9bc c3b5 acbd 4b3e c9bd f865 c0bd
00000320: 10d5 2c3e ee25 783e b810 813e 3f75 2e3e
00000330: c6f7 213e cfbb 3bbc 3740 5a3d c361 bdbb
00000340: 806f 3a3d 0b06 05be 2238 7cbd eff3 3d3d
00000350: 616e 773d 3271 003c fc1f cdbd 5498 9cbd
00000360: e753 eb3c 3427 813c 9782 bebd c895 bdbd
00000370: fc51 a5bc eedd a6bc 1722 5dbb c55d debd
00000380: 4a9c 25be b898 b2bd 87d3 05be e50f 17bc
00000390: 7bae 85bb 2d03 4f3d 5518 09be de7c 24bd
000003a0: 81eb a73a 53df fcbc 6c51 fa3b 342d f2bd
000003b0: 4f3c 45bd 269c 533d 3c2b 52bb 43d7 8a3d
000003c0: cb8e 2fbd cdd3 8b3d 999e 1a3d f4b4 1b3d
000003d0: f5de eb3d ef62 7d3c 04c6 7e3d 42d4 8f3d
000003e0: e906 fd3d e3d9 dd3d 6588 a2bd 73ef 49bd
000003f0: 7fe4 58bd c477 7cbd 60eb 87bd a65d 6c3c
-0.035305444 -0.07649756 -0.029772822 -0.008960093 0.011080085 -0.11025962 -0.08590335 -0.051189132
-0.01909053 -0.052427217 -0.115688376 -0.07062458 -0.00091156084 -0.03766383 -0.025451029 -0.14244542
-0.03687674 -0.0040105674 0.012042053 0.028193157 -0.04775644 -0.07213876 0.019956848 0.04576543
0.054278396 0.0075155813 0.031178273 0.084694795 -0.053193096 -0.033798568 0.052189775 0.057577893
0.11246124 0.002281036 -0.02674888 -0.02631704 0.047074933 0.024285838 0.0042691245 -0.070866734
-0.03586478 0.033023726 0.016494278 0.02483855 0.04083872 -0.033627883 -0.047886647 0.0702167
-0.03508145 0.014762862 -0.016190113 -0.057778228 -0.0040355525 0.039773714 0.026278831 -0.014695805
-0.05443436 -0.09197747 -0.11027035 -0.015872942 -0.01917574 -0.09928257 -0.13653384 -0.07812437
-0.07695488 0.01980107 -0.061445042 -0.019198483 -0.03855332 -0.05722488 -0.029015193 0.018057859
0.046985447 0.03582146 -0.008604867 -0.038755458 0.105834484 0.063005805 0.05741916 0.032580953
-0.009062226 0.05616111 0.08854799 0.10935079 0.0051150084 -0.08852976 -0.016511334 -0.036945857
0.05010511 -0.0056388294 -0.10862796 -0.063781925 -0.068624094 -0.04610393 -0.06933737 -0.16323096
0.031396113 -0.028312651 -0.045323156 -0.089381 -0.028384592 0.07413336 0.03544654 0.0441506
0.075817406 0.031313147 -0.0660171 0.01843014 -0.06894851 -0.006450251 0.0179856 -0.053378426
-0.052696347 -0.09086714 -0.03624703 -0.0194658 -0.07904596 -0.09627701 -0.038676273 0.022431707
0.031572584 -0.020280696 0.05100528 0.0026480467 0.037394915 -0.11054945 -0.09276093 -0.17904939
-0.048265357 -0.049172826 -0.05462747 0.020424714 0.032769192 0.057127044 0.08791551 -0.045663215
0.13738471 0.09340806 0.13132389 0.18333338 -0.019922866 0.0726876 0.05585196 0.16719347
0.102582395 -0.10817783 0.068256676 0.002253563 0.07368217 0.044911124 -0.006471959 -0.052459694
0.016959257 -0.08552423 -0.12215651 -0.008329797 0.0007836988 -0.04003233 -0.07243719 -0.057022672
0.021269783 0.023401676 0.0021674726 0.05035667 -0.015272617 0.06044898 0.10051934 0.10069559
-0.014958406 0.02452055 0.010011194 0.059261695 0.0534556 0.1035056 0.05673042 0.10908259
0.20339544 0.21142872 0.1508299 0.10170178 0.0067104856 0.04467259 0.036802616 0.07703189
-0.015352566 0.02908412 0.11847705 0.0436529 0.06060695 -0.023047458 0.039829284 0.059520584
0.05925046 -0.026818575 -0.10881608 -0.016898422 -0.030477354 -0.08433106 -0.098263346 -0.09394449
0.16878152 0.24233219 0.25208068 0.17036913 0.15817174 -0.011458351 0.053283896 -0.0057794764
0.04551649 -0.12990586 -0.06157697 0.04637521 0.060408 0.007839488 -0.10015866 -0.07646242
0.028726531 0.015765764 -0.09302252 -0.09257084 -0.020180695 -0.020369496 -0.0033742243 -0.10857729
-0.16172901 -0.08720535 -0.13068973 -0.009220098 -0.0040796376 0.050540138 -0.13388188 -0.040158145
0.0012811275 -0.030868208 0.007639101 -0.11825028 -0.048153218 0.051662587 -0.0032069227 0.06779339
-0.042860787 0.06827507 0.037748907 0.038014367 0.11517135 0.015465482 0.06220056 0.07022907
0.12354834 0.10832574 -0.079361714 -0.049300622 -0.052952286 -0.061637655 -0.06636691 0.014426624

conv2.bias f4 [12]
00000000: 8e16 c7b9 bec6 80ba a6c1 09ba 47c3 343a
00000010: 0d04 c03a 1835 7ab9 5335 aab9 816f 4fba
00000020: afbb 5fba 5d1f f639 af1d 6a3a 915c d9b9
-0.00037973042 -0.0009824855 -0.0005254991 0.00068955537 0.0014649645 -0.00023861637 -0.00032464656 -0.0007913039
-0.0008534742 0.00046944144 0.0008930815 -0.00041458433

bn2.weight f4 [12]
00000000: f0ff 5c3f d7ce 813f 396c 7e3f c757 783f
00000010: 5998 5f3f eccc 573f c968 703f 2ad1 8b3f
00000020: 2b50 803f f57b 983f b975 5a3f 476e 7d3f
0.8632803 1.0141248 0.99383885 0.9700894 0.8734184 0.8429706 0.9390989 1.0923207
1.0024465 1.1912829 0.8533588 0.98996395

bn2.bias f4 [12]
00000000: 0ec3 f8bd 9a9f a6bd 5e37 53be 9af4 5ebd
00000010: efad ecbd 0e44 67be db09 c6bd 8f3e 90be
00000020: e393 29be 3243 8abe 21fd 02be 4caa 49be
-0.12146579 -0.0813591 -0.2062659 -0.05443249 -0.11556613 -0.22584555 -0.096698485 -0.28172728
-0.1656032 -0.2700439 -0.12791874 -0.1969387

bn2.running_mean f4 [12]
00000000: b0ae 95bc 8c94 c8bf d2d7 9bbf 5fb4 bcbf
00000010: 8ab2 5a3d c503 c1bf a8f2 bcbf 6478 e8be
00000020: 22b2 f3be 471d 48bf 63ea 3ec0 d1f2 6fbe
-0.018271774 -1.5670333 -1.2175238 -1.4742545 0.053392924 -1.5079275 -1.4761553 -0.4540435
-0.47596842 -0.78169674 -2.9830558 -0.23432471

bn2.running_var f4 [12]
00000000: bbf3 8940 030a 8640 68e3 4240 6748 cf40
00000010: 42cd 4940 8580 9640 21b5 0840 008d 2640
00000020: 6d92 2b40 5e65 8a40 9fa1 9440 4606 bd40
4.3110023 4.188722 3.0451298 6.477588 3.153153 4.7031884 2.1360552 2.602356
2.6808121 4.324874 4.644729 5.907016

conv4.weight f4 [24, 12, 5, 5]
00000000: 9ef0 19bd 4c49 e63b 5640 7abb a91c 2abc
00000010: dffb 45bd e5ec ef3d a44e 213e d118 d13d
00000020: 2c9d bf3d 67c9 cf3d bc77 763d 68a1 d13c
00000030: 84a1 c53c f5a3 263d f9d5 b63c 2d29 843d
00000040: a5b9 083d e088 583b 9ab5 143d 71db 9e3c
00000050: aabd 0a3d 983e fcb9 0648 dbbc 6771 89bd
00000060: 5d43 45bd 3d49 1d3d 8ca4 043e 17dc 4a3d
00000070: 39f4 983d be86 493d 94e8 373d 4c53 da3d
00000080: 16d4 6f3d fa1a 553d caff 2b3d 32cb 233d
00000090: a204 62bc fb78 f0bc 4010 14bd 350d 1abd
000000a0: 68be 1abd 7b22 db3c aed5 abbd bd11 cebd
000000b0: 8a08 3ebc cdbe 3cbd 1584 e53c c313 50bd
000000c0: ffad 2bbd b882 9bbc ce8c 11bd 703f 37bd
000000d0: 1969 dcbc e3b2 4bbb 85a4 44bd 54b4 f13a
000000e0: 177e f7bd bca8 ecbd 7a06 403c 80ca c2bc
000000f0: 90fb c4bb 58cf d93c 7d74 edbd 4222 71bd
00000100: 3035 00be 31da 863d faad 8b3d bed6 9a3b
00000110: ccf5 bb3c c0d0 2abd 76b6 94bd 1345 433d
00000120: 78e3 4b3b 1c04 333c a1ce 2cbd 1fbb 8ebd
00000130: d39a 26bd 2121 d5bc eca3 933d d34f fe3d
00000140: 564b 13be 8730 6cbd 721d f3bd 6471 71bd
00000150: fa5f 953c 4dcf 9fbd 24f7 c2bd bbc8 3ebe
00000160: c049 f8bd 5f2b 10bd beaa 47bd b20a 05be
00000170: 4795 ccbd 02d0 d2bd 36b9 34bd a2fe 2dbd
00000180: 155b 58bd 06e2 d2bc 2169 b4bd 1f95 21bd
00000190: f5ef a8bd 5299 d93c 8c5b 9e3d 127e b33d
000001a0: 2e9a 8e3c b03a cdbd 51fc b9bd b618 19bd
000001b0: c7b6 fabc 3f3e 59bc c5da 883d 9d23 113d
000001c0: cf62 8b3d beda a33d 3bdb 56bb bda7 cb3d
000001d0: ccf5 393d e9a4 3b3d 172a 173e 8d05 143e
000001e0: 10fd c13b d150 b73c e51a 5c3d caac 503d
000001f0: 415e bf3c e5fe 6f3c 9346 60bc dcf9 0a3d
00000200: 3848 cf3c a6de 493c e0af dabc b2eb 17bd
00000210: 03b6 893c 3cc9 c83d 532f f83c b6dd 21bc
00000220: 32dd f0bd 01df 43bd 10ec 75bd da99 56bc
00000230: 6c40 95bd 468a 9dbd 3f3e 4fbc c17a ef3b
00000240: 7bac 3e3c 757c b2bd aaaf 30bd 8604 0b3c
00000250: bdd0 6bbd cd81 7fbd f88f cfbd c41a 85bd
00000260: 04bc 8dbd 36ef d73b b8bd a3bd daf8 423d
00000270: d5b2 59bc f77f a7bd be46 43bd 5a65 8cbd
00000280: af76 2fbc c244 5b3d f74c 6e3d c5f5 e83b
00000290: b3fd 83bb 44ea d73d c097 7c3d d940 2a3d
000002a0: 7c37 873d 3166 883d 358e 463d acbe 0a3c
000002b0: b667 ecbd f290 03be 2414 5ebd a482 fbbc
000002c0: 3809 92bd 2252 92bc 3e5c cabc ec4d 563b
000002d0: 1b30 303d 3832 43bd d3a6 8dbd ccfc a7bc
000002e0: b6fb 1abd cd37 e43d 3fca 113e d982 ca3d
000002f0: a5e8 0e3e 4bba d53d 0054 b03d 8f2c 5d3d
00000300: 4c26 053e 458f 863d 6994 1b3e 8173 1dbd
00000310: 6f83 803c c87e 3bbd 2617 15bd f456 81bd
00000320: f1b4 38bd 77a4 d13b 2eb5 32bd 3da2 3ebd
00000330: 4633 3bbc 98d6 67bd 145f afbc d4d8 6cbd
00000340: 59ad c1bc 55e5 09bc edae 8abd 5e15 123b
00000350: aa4d 323d b835 923d 0a7b e13d bc6c 06bc
00000360: e7b4 f13d 4d98 b03d 962a 8a3d f92e 0d3e
00000370: c9ab 273d 9c97 2b3c d993 50bc ece1 0cbd
00000380: c98e b9bc 0922 423d 6d25 013d 1747 103e
00000390: b1c7 953d 868b 8a3b d14c 31bd 5ed6 4fbd
000003a0: d5bd 7f3b 4f36 c23c 08c6 3fbd 8fb5 10bd
000003b0: fbd0 e2bd b103 bbbd e932 2fbe 73bb dabd
000003c0: 538d 21be 5005 09be 6137 f2bd 9b7a 48be
000003d0: a840 4cbe bba5 a4bd dd00 01bd 6e72 22be
000003e0: 4f30 dabd 362a 10be 5c08 133d b9e6 d13d
000003f0: f461 f43d a338 df3d b58c fb3c 8787 03bd
-0.037582986 0.0070277806 -0.003818532 -0.01038281 -0.048335906 0.11715106 0.15752655 0.102098115
0.0935615 0.10145836 0.06017278 0.02558966 0.024124868 0.040683705 0.022318827 0.06453166
0.03338017 0.0033040568 0.036306 0.019391747 0.033872284 -0.00048111822 -0.026767742 -0.06711083
-0.048159946 0.038399924 0.12953395 0.0495263 0.07468457 0.049200766 0.04489954 0.10660419
0.05855187 0.05202768 0.041991986 0.039988704 -0.01379505 -0.029354563 -0.03614831 -0.03761025
-0.03777924 0.02674984 -0.083903655 -0.10061977 -0.011598716 -0.0460804 0.028017083 -0.050800096
-0.041913982 -0.01898323 -0.035534672 -0.044738233 -0.026905583 -0.0031081967 -0.04800846 0.0018440583
-0.120845966 -0.11555621 0.011720294 -0.0237782 -0.006011434 0.026588127 -0.11594484 -0.05887056
-0.1252029 0.065845855 0.06820293 0.0047253063 0.022944354 -0.041702986 -0.07261364 0.047673296
0.0031110924 0.010926273 -0.042189244 -0.06969284 -0.040674996 -0.026016774 0.07209 0.12417569
-0.14384207 -0.057663467 -0.118708506 -0.05894603 0.018234242 -0.07803211 -0.095197946 -0.1863126
-0.12123442 -0.035197612 -0.048746817 -0.12992361 -0.0998941 -0.102935806 -0.044121943 -0.042479165
-0.052821238 -0.025742542 -0.08809114 -0.039448854 -0.08248893 0.026562367 0.07732305 0.087642804
0.017407503 -0.100209594 -0.09081329 -0.03737708 -0.030604733 -0.0132594695 0.06682352 0.035434354
0.068059556 0.08000706 -0.003278448 0.09944103 0.045400426 0.045811567 0.1476215 0.14455242
0.00592006 0.022377403 0.053736586 0.050946034 0.023360373 0.014648174 -0.013688701 0.03392969
0.025302991 0.01232115 -0.026695192 -0.03709001 0.016810423 0.098040074 0.030296003 -0.00987952
-0.1176094 -0.047820095 -0.06003958 -0.0130982045 -0.07287678 -0.07692389 -0.012649118 0.0073083346
0.011637802 -0.087151445 -0.043136276 0.008484965 -0.057572115 -0.062379647 -0.10134882 -0.06499246
-0.06920627 0.0065897955 -0.0799517 0.047600605 -0.013287266 -0.08178704 -0.047674887 -0.06855269
-0.010709449 0.05353237 0.05817887 0.007109376 -0.004028046 0.105427295 0.061668158 0.04156575
0.0660238 0.066601165 0.048475463 0.008468311 -0.11543219 -0.12848261 -0.054218426 -0.030701943
-0.071306646 -0.01786143 -0.024702188 0.0032700254 0.043014627 -0.047655314 -0.06916585 -0.020506285
-0.037837707 0.11143456 0.14237307 0.098882385 0.13955934 0.10435923 0.08609772 0.053997573
0.1300289 0.06570295 0.15193333 -0.03844023 0.015687672 -0.045775205 -0.03639903 -0.06315413
-0.045094434 0.0063977796 -0.043629818 -0.04654144 -0.011425799 -0.056601137 -0.021407641 -0.05782397
-0.023642229 -0.008416493 -0.06771646 0.0022290568 0.043531097 0.07139152 0.11009796 -0.008204635
0.118020825 0.08622799 0.06746404 0.1378745 0.04093531 0.010473158 -0.012730562 -0.034395143
-0.022651093 0.04739574 0.031529833 0.14089619 0.07313479 0.0042280583 -0.04328615 -0.050741546
0.003902306 0.023707537 -0.046819717 -0.035329398 -0.11075016 -0.091315635 -0.17109264 -0.10680284
-0.15776567 -0.13380933 -0.11826969 -0.1957802 -0.1994654 -0.08039423 -0.031494964 -0.15863964
-0.106537454 -0.14078602 0.035896644 0.10249085 0.119327456 0.108994745 0.030706743 -0.03211167

conv4.bias f4 [24]
00000000: 1c83 6537 7bc1 55b9 fe78 8f37 b49a c8b7
00000010: b47c eab8 30fb 6eb9 64e7 1d39 cc75 79b9
00000020: d888 b738 8600 1339 0ade 5eb8 1198 48b9
00000030: 4a86 e1b9 5fed f038 db16 6b39 cbcd 8539
00000040: 1a07 95b8 899b b4b9 1ef3 4839 33f0 ea39
00000050: db50 51b9 0271 1c39 1153 96b9 7af3 be38
1.367999e-05 -0.0002038534 1.710327e-05 -2.3913897e-05 -0.00011181217 -0.00022791023 0.00015058886 -0.00023790373
8.751609e-05 0.00014019207 -5.3135715e-05 -0.00019130135 -0.00043015397 0.000114883056 0.00022419861 0.00025521065
-7.1061964e-05 -0.00034448158 0.00019164055 0.0004481092 -0.00019961914 0.00014919418 -0.0002867212 9.105257e-05

bn4.weight f4 [24]
00000000: 3597 733f 47da 843f 5565 803f 3202 803f
00000010: 2d71 743f 1c43 853f 6300 893f 34e7 6d3f
00000020: cf3f 893f 93c1 663f 02b7 693f d5fb 6a3f
00000030: 6871 973f 6156 663f dcd4 733f 7fde 833f
00000040: 066f 693f 49ba 763f bc0a 7e3f 2fb2 8b3f
00000050: 0e4e 883f e046 653f 0f33 6d3f ede0 6c3f
0.951526 1.0379113 1.0030924 1.000067 0.9548519 1.0411105 1.0703243 0.9293091
1.0722598 0.9013912 0.9129487 0.91790515 1.1831484 0.89975554 0.9524667 1.0302275
0.91185033 0.96378 0.9923513 1.0913752 1.064882 0.8956127 0.92656034 0.9253071

bn4.bias f4 [24]
00000000: d845 0fbe f0a3 8cbd 2f95 bdbd 8cab efbd
00000010: d973 28bd 2caa 1bbe 0062 f5ba e7e6 f4bd
00000020: a871 69bd b7ea 0bbe e4e0 a5bd 03bb debd
00000030: f716 e6bc 5429 74be 3065 c4bd f35d cbbd
00000040: 7472 01be 18d2 b7bd fa31 953b 4046 1dbe
00000050: 67dc b6bc 624d 5ebd e16e b9bd 806f f1bd
-0.13991487 -0.06867206 -0.0925697 -0.11702642 -0.041126106 -0.15201634 -0.0018721223 -0.119581036
-0.056993157 -0.13663755 -0.08099535 -0.108755134 -0.028087122 -0.2384389 -0.095896125 -0.09930029
-0.12641317 -0.08975619 0.004553077 -0.1535883 -0.022321893 -0.054273017 -0.090543516 -0.11788845

bn4.running_mean f4 [24]
00000000: 38b8 91bf dc72 dfbf d240 c4bf 19bc bd3f
00000010: 9ee1 80bf 6317 e03e 1cf4 b9bf c49e f0bf
00000020: 0d3a 4ebf 0eef 603f ac62 583c e38a 9d3e
00000030: 82a7 0ac0 b68d 16bf 0864 5d3f 5fd9 30c0
00000040: 3de2 7abf a468 acbf 6d3b 59bf 8f28 a0bf
00000050: e60d 2fbf 6ea7 143f 17f3 a9bf 2041 983e
-1.1384344 -1.7456927 -1.5332282 1.4823028 -1.0068853 0.43767843 -1.4527621 -1.8798451
-0.8055733 0.8786477 0.013207119 0.30770025 -2.1664739 -0.58809984 0.8648076 -2.7632673
-0.9800146 -1.3469434 -0.848563 -1.2512378 -0.6838058 0.5806798 -1.327731 0.29737186

bn4.running_var f4 [24]
00000000: d891 3340 d20e 6440 f195 6140 35e2 0540
00000010: 929e 6640 559c 0f40 fd40 2740 7ce3 3640
00000020: b193 2340 ad5e c03f 9fce d33f e52a f43f
00000030: b641 7c40 540c e23f 8ee9 f23f 14c0 6540
00000040: 87e0 df3f 3d2f e03f 0b23 1e40 1c48 3940
00000050: ba02 2140 b6bc 2b40 529e f73f 0cef 0940
2.8057766 3.5634046 3.5247767 2.0919316 3.6034284 2.2439167 2.6133416 2.8576345
2.5558894 1.5028893 1.6547431 1.907559 3.9415107 1.7660012 1.8977525 3.5898485
1.7490395 1.7514416 2.4708889 2.8950262 2.5157914 2.683393 1.934519 2.1552153

conv5.weight f4 [24, 24, 5, 5]
00000000: e95f 19bd 50c3 e2bc 9630 abbc 52ea 113c
00000010: 2678 cfbd 17c1 383d 6bc8 7dbb 0baf 5c3d
00000020: da1b ba3d 8c48 ed3c e0b7 103c cc38 da3c
00000030: 77f4 783c 859e e23c 4ce2 67ba b12e e53c
00000040: c9db 99bc b9f1 573d bac9 873d ac2e b13b
00000050: 252e 2cbd 1137 9abd 43b3 373c e675 5b3d
00000060: a3a6 9fbc f9de 91bd d2fd 81bc 6095 093d
00000070: 44f1 9a3c 01ff 5dbd c2c9 e93c 342a 733d
00000080: 08f0 f03d 4914 ad3d 68e0 17bd c176 a63d
00000090: b948 ca3d 71d1 dd3d c578 d13d e6ea 633a
000000a0: f0dd 2b3d 262c c83d 6ad5 fd3d 7d33 f03d
000000b0: 4c94 5fbd 5dd6 4b3d 5999 6d3d 7eca 883d
000000c0: 7b68 7b3d d5cd 13bd fc86 babd be2f dbbd
000000d0: d9f9 0cbe d839 41be 9fb0 1abe ef2e e5bd
000000e0: 62e9 87bd 98d1 b2bd 20fa e9bd f2ea 6fbd
000000f0: c613 9dbd 9515 3dbb 2439 eabd 4a23 a2bd
00000100: 5c55 86bd 9969 c6bd db78 13bd 4e01 afbd
00000110: cd0e e9bd 115d e7bd 292e 69bd 1b33 37bd
00000120: 16bf 1ebd c9d6 f1bc a303 82bd eddf d6bd
00000130: 81ff 4dbd f079 8dbd abb7 88bd bf13 06be
00000140: 4d31 e23b 28ec 983d 8a12 c33d 5aa4 8a3d
00000150: a081 a0bd f440 3fbd 411a 2f3d a9df 383d
00000160: 68bb 98bc 16d9 5ebd d8a7 8bbd 3d7b 563d
00000170: 9087 8b3d 677c bdbc 1b46 70bb c5ff dbbc
00000180: 0a0e ca3b cacf 67bc 4e2b 35bd e520 dabc
00000190: ba58 013c a534 1a3d d979 133d d7a9 44bd
000001a0: dfb3 c8bd 7383 18bc 5ce1 593d dd50 a13d
000001b0: 9d19 213d 43e8 3fbd 16e5 573c 7c62 e23c
000001c0: ed4d 8d3d fd3a 5a3d 4cf7 0cbd e9eb 02bd
000001d0: 47df 33ba 9af8 febb 8674 433b f515 5ebc
000001e0: de32 93bd 2f9b d0bd b676 94bd 4e30 2d3b
000001f0: b60d b9bc 6223 f2bd e8cf 963c eee4 d3bc
00000200: 605e aabd 5984 94bd f78d d1bc 22a8 233e
00000210: 97b8 e73d 06a9 0b3c a90a 7dbd 8b2d 823d
00000220: 194b 133e f522 bf3d 1ce6 393d 71e6 82bd
00000230: ccb4 933c e510 d33d c167 233e 3f50 d73d
00000240: 7d7f f6bc f0a5 91bc 796f ca3c 30b9 a53d
00000250: 4c09 673d 4885 17bc c656 a0bc eb3c 44bc
00000260: cc90 903b f991 3bbc d63d 70bd 93fd 743d
00000270: 4c86 2f3b 6cee b03d 3722 b93c df46 0dbd
00000280: db4e f43d dfe7 da3d d2d4 063e 7193 e53d
00000290: a5e2 d53d dadf 073d c87d b03d 1169 403d
000002a0: 5529 8e3d 299d 043d 02ba 933c 318f 153d
000002b0: fcfb a23d bc78 a23d 80da 5c3d 3dc5 6a3d
000002c0: b888 cf3c 6a35 0ebc 2ec8 c6bc fe19 673d
000002d0: b284 9d3c e4cc 9dbc 91df 1bbd 9458 72bd
000002e0: 4351 59bd 3955 1e3a e38c 47bd 9f46 ddbb
000002f0: 49b7 c0bd d504 c9bd 14f2 67bc a6fb 6dbd
00000300: 2f0a 3dbc 6b35 afbd 5e9e 8bbd 4484 d93c
00000310: 517c 9a3d 0142 3c3d 846b 923d 4215 5b3d
00000320: 6200 30bd ca2a 50bd 32c5 5abd d090 34bc
00000330: d018 08be 0f84 0b3c 0417 9e3d f52e 033e
00000340: 1ea8 bd3d a076 38bd 0207 05be c42d 74bd
00000350: 3d0d cabc 3dc6 0fbd 2b10 a8bd d4eb dbbd
00000360: 4864 b6bc 0608 ed3d 49b2 e83d 74e9 d1bc
00000370: 8479 59bc 00a0 003d 9da9 ba3d 8394 d43d
00000380: e685 7d3d 3df6 1dbd 16cd 2ebd 9510 8a3d
00000390: cde3 db3d 9621 ed3d 0612 59bd 5fdb 2d3c
000003a0: b7e4 a53c 76ba 343d c4c4 ee3d b7f8 87bd
000003b0: aa5d fdbc 50b3 49bc b1d3 35bd 4eb5 9c3c
000003c0: 4581 91ba 0e02 0ebb baf7 a2bd 36b6 9cbd
000003d0: bcc3 2e3d c102 343d f2b1 273d 3b64 553c
000003e0: b2a3 4dbd f5e0 71bc 3b80 d93c d589 113d
000003f0: 6878 683c ef00 af3c d47f 183c 42e0 893d
-0.037444983 -0.027681023 -0.020897191 0.008905964 -0.10130338 0.04510602 -0.0038724195 0.05387787
0.090873435 0.028965257 0.008832902 0.026638411 0.015195004 0.027663479 -0.00088456715 0.027976366
-0.01878156 0.05272076 0.06630273 0.005407175 -0.042036194 -0.07530034 0.011212173 0.053579234
-0.019488638 -0.07122607 -0.015868101 0.03358972 0.018913873 -0.05419827 0.028538588 0.05936642
0.11764532 0.08451135 -0.037079245 0.08128119 0.09877152 0.108309634 0.10228113 0.00086943654
0.041959703 0.09774046 0.12394221 0.117285706 -0.054584786 0.04976498 0.05800757 0.06679247
0.061378937 -0.03608497 -0.091077775 -0.107024655 -0.13767184 -0.18869722 -0.15106438 -0.111905925
-0.06636311 -0.08731383 -0.11424661 -0.05857367 -0.07669787 -0.0028851975 -0.1143668 -0.07916887
-0.0655925 -0.0968811 -0.03600393 -0.08545171 -0.11379776 -0.11297048 -0.056928787 -0.044726472
-0.038756453 -0.029521363 -0.0634835 -0.10491929 -0.050292496 -0.06908023 -0.06675657 -0.1309347
0.00690285 0.07466918 0.095250204 0.06769629 -0.07837224 -0.046692804 0.042749647 0.045135174
-0.01864405 -0.054406248 -0.06819123 0.052363623 0.06812966 -0.023130609 -0.003666288 -0.026855359
0.0061662244 -0.014148662 -0.04423075 -0.026627013 0.007894689 0.037647862 0.036004875 -0.048013534
-0.09799933 -0.009308684 0.053193435 0.078767516 0.039331067 -0.04685236 0.013177177 0.027634852
0.06899629 0.05327891 -0.03441553 -0.031963263 -0.0006861579 -0.0077811005 0.0029824092 -0.01355504
-0.071874365 -0.10185849 -0.07249205 0.0026426497 -0.022589546 -0.11823155 0.018409684 -0.025865998
-0.08318782 -0.07251806 -0.02558039 0.15982106 0.113145046 0.008524185 -0.061777744 0.06356343
0.14384116 0.093328394 0.045385465 -0.063916095 0.018030547 0.10305957 0.15957548 0.105133526
-0.030090088 -0.01777932 0.024711357 0.08091962 0.05640535 -0.009248085 -0.019572627 -0.011977415
0.0044117924 -0.011448377 -0.05865272 0.05981214 0.0026782928 0.08639225 0.022599323 -0.034491416
0.11929103 0.10688757 0.13167122 0.11209763 0.1044362 0.033172466 0.08617741 0.0469752
0.06941477 0.032376442 0.018033031 0.03651351 0.079582185 0.079331845 0.053919315 0.057317007
0.025333747 -0.008679727 -0.024265375 0.056421272 0.019228313 -0.019262739 -0.038055006 -0.059166506
-0.053056013 0.0006039921 -0.048718344 -0.0067528035 -0.09409959 -0.09815375 -0.014156837 -0.05810132
-0.0115380725 -0.085551105 -0.068173155 0.026552327 0.07543243 0.045961384 0.07149413 0.05348707
-0.042969115 -0.050822057 -0.053410716 -0.011020854 -0.13290715 0.008515372 0.07719234 0.12810881
0.092605814 -0.045035005 -0.12990955 -0.059613958 -0.024664516 -0.035101164 -0.08206209 -0.1073834
-0.022264615 0.11573796 0.1136213 -0.025624014 -0.0132736005 0.031402588 0.091143824 0.10379889
0.061895274 -0.03856491 -0.042676054 0.06741444 0.10736809 0.11578672 -0.052995704 0.010611384
0.020250661 0.044123136 0.11658624 -0.066392355 -0.030928452 -0.012310818 -0.044391338 0.019129422
-0.0011101147 -0.0021668705 -0.07957406 -0.076519415 0.042667136 0.04394794 0.040941186 0.013024385
-0.05020494 -0.014763107 0.026550403 0.035531837 0.014188863 0.02136275 0.00930782 0.06732227

conv5.bias f4 [24]
00000000: cc49 6fb9 505d d8b9 da3b 54b8 1412 c2b8
00000010: 344b 14b8 be5b c0b7 fbe6 35b9 fe2c bbb8
00000020: 3757 2138 ce49 c2b8 1939 1539 56c5 ffb8
00000030: 5457 f238 427b c438 d307 ed39 483d 3bb9
00000040: aab9 b9b8 5dba 81b7 04c1 ab38 3770 f7b8
00000050: 9197 4238 62e2 a939 ac8f 1538 2341 73b8
-0.00022820308 -0.00041268254 -5.060048e-05 -9.254008e-05 -3.5355988e-05 -2.2930904e-05 -0.00017347552 -8.925235e-05
3.8466616e-05 -9.264388e-05 0.00014231018 -0.00012196104 0.00011555725 9.368967e-05 0.00045209992 -0.00017856539
-8.85607e-05 -1.546478e-05 8.1898674e-05 -0.000117987795 4.639436e-05 0.0003240286 3.5658173e-05 -5.7996378e-05

bn5.weight f4 [24]
00000000: 0a8e 223f 91f6 2b3f dbfa 2b3f 3dc1 103f
00000010: 8c88 203f 932d 213f 1c5e 193f c1d2 1d3f
00000020: bf06 223f 1187 163f 5366 153f 84ef 1c3f
00000030: 1cfd 113f d01b 173f fc01 253f 8ce3 263f
00000040: b4ca 153f 311b 133f ec00 113f 5972 163f
00000050: 8a99 0f3f 9b42 2c3f d1d2 133f dfe1 083f
0.63497984 0.67173105 0.6717965 0.5654486 0.62708354 0.62960166 0.59909225 0.6164971
0.63291544 0.58799845 0.5835926 0.6130297 0.5702684 0.59026814 0.6445615 0.6519096
0.58512425 0.57463366 0.5664203 0.5876823 0.56093657 0.6728913 0.57743555 0.5346965

bn5.bias f4 [24]
00000000: 3993 83be 0bdb 9cbe 263b a7be a3ee cabe
00000010: 3be8 b3be e9f2 8abe aa94 a3be cb15 b5be
00000020: 7e57 9dbe 9dba a0be d604 b2be 48b5 bebe
00000030: 11bf b7be dcb9 afbe 308a acbe 0255 b7be
00000040: 07be cdbe 24ca b2be 2a23 b7be 2304 adbe
00000050: d4a8 c1be 452d afbe 9ebb a5be 0fb0 e3be
-0.2569826 -0.30635867 -0.32662314 -0.3963519 -0.35138115 -0.2713845 -0.3194936 -0.3536819
-0.30730814 -0.31392375 -0.34769315 -0.37247682 -0.3588796 -0.34321487 -0.3369918 -0.35807043
-0.40184042 -0.34919846 -0.35769016 -0.3379222 -0.37824118 -0.34214225 -0.32369703 -0.4447026

bn5.running_mean f4 [24]
00000000: 61d9 4ebf 981a 08c0 82bd 37c0 7cbb d8bf
00000010: 82a4 99c0 baf3 83c0 2c36 40c0 a44b 0ac0
00000020: 2317 4dc0 f030 9ec0 b858 89c0 9204 65c0
00000030: c69f 4cc0 17c2 40c0 a9fb acbf e758 33bf
00000040: d633 80bf 41d8 93bf b060 78c0 96e8 acbf
00000050: 471c 80c0 98d2 febf b89a dcbf 80b0 22c0
-0.80800444 -2.1266232 -2.8709416 -1.6932216 -4.8013315 -4.123502 -3.0033064 -2.1608667
-3.2045372 -4.943474 -4.29208 -3.578404 -3.1972518 -3.0118463 -1.35143 -0.7005753
-1.0015819 -1.155037 -3.8809013 -1.350848 -4.003452 -1.9908018 -1.7234716 -2.5420227

bn5.running_var f4 [24]
00000000: fcad b140 acee 9240 9580 e440 6579 a640
00000010: 16da c640 a626 f540 d6e4 d940 629c 9340
00000020: ed8c 1f41 3ead c740 4aca 9740 0cfe f340
00000030: fea5 d840 5750 9540 d447 9040 7fa3 9840
00000040: 0412 9840 2568 ca40 23da 9c40 35ab c340
00000050: f905 bf40 451f e940 ac1a a140 7ede cb40
5.5524883 4.5916348 7.140696 5.2023187 6.214122 7.660968 6.809184 4.6128397
9.971906 6.2398977 4.7434435 7.6247616 6.7702627 4.666057 4.508768 4.769958
4.752199 6.325213 4.901628 6.1146493 5.969479 7.285067 5.034506 6.3709097

fc1.weight f4 [10, 2400]
00000000: 11b5 ec3d fddb c23c 8dea f2ba 46af 803c
00000010: 2552 a1bc 1908 c63a 96ab 873c 8f8b 163d
00000020: d0fc 303c 533b 2e3b fb8a c63d 6913 0f3c
00000030: bf67 0dbd 6eac 3e3b 0fe0 08bc 64ef 8cbc
00000040: 833c cebc 8bc3 aebc 1dba a7bc 289c a43b
00000050: cf5f e63d ee9a 8c3c f752 7ebc ae83 3e3c
00000060: 96fc 523c 0246 cf3c fb22 87bc 8589 b8bc
00000070: 4eb4 4b3b 0b87 ce3c 09f7 163d ba87 41bc
00000080: dd4a 23bd b1c8 00bd 04d7 7fbc d5d3 b13c
00000090: 6708 54bb ee6d dabc 01d3 8539 34e9 0d3b
000000a0: 9091 293d 23eb e33b b6d5 9cb9 f684 25bd
000000b0: acf7 b2bc d6bc 133a c18e a43b d393 923c
000000c0: 31b5 89bb e1f3 123d 3640 1c3d 3b87 533c
000000d0: 8306 133d 428e d4ba 13ea 263c f716 59bb
000000e0: 3bdd 3a3d 891d 0d3d 88a5 f23b c648 8e3c
000000f0: 4078 103c 1621 a03c 45a7 fe3c 7162 6cbc
00000100: 5e44 f23c df01 263c 947d 373d c64c 283d
00000110: 28de fc3c 5255 713d 7468 52bc ef7d 9a3b
00000120: 6efa 923c 6b86 0b3d 04b2 203c 92d2 473c
00000130: aa75 153d 3f24 c73c c266 103d 2ba2 913d
00000140: 1250 57bd f3db 13bc 33c9 b43b d10a 1c3c
00000150: 56e2 323d 7afa 1b3d 6bbc 803d a5eb 1f3d
00000160: e23f 753d 5996 0c3e 64f6 9abd 4e43 49bd
00000170: 7bb5 01bd 52c3 0fbd b14d ec3b 17aa 573c
00000180: f610 b1bb 3939 2f3c 239a 0e3d 20c9 e93d
00000190: c890 82be 2d9e edbd f0fe 73bd 7559 2ebd
000001a0: 924a 19bd a0dc 13bd 6de8 ba3b 9b65 ebbc
000001b0: b1d2 8bbc 56d9 22bd b39c cdbd b490 563c
000001c0: 65e4 ac3d 3ab4 5e3d e32e 113d ea23 5d3d
000001d0: f989 d93c 2842 163c 01f4 0d3d ea34 453d
000001e0: 82a8 bfbc 2121 4d3d 6edc 2b3d 08c4 063c
000001f0: 8b58 0f3b 97f5 30bc 1ef6 8bbc 6976 ca3c
00000200: 5ab3 523d 425e c23d 8f2d dbbc 2491 103c
00000210: 582e a13c 227d 1cbc 8be4 82bc f968 94bc
00000220: 740c f2bb 5b80 5ebc 189f 913c 0c70 513d
00000230: fb31 433c 1b72 c3bc c27c 64bc 85f4 093d
00000240: 5429 503d a89f 993c 48de b838 68c1 a43c
00000250: 9020 7a3c 3a11 683c a63b 17bd aa0a 613c
00000260: 90e2 0e3b e060 2c3d 05f2 e33c 6566 463c
00000270: 9709 7b3b 739b 9ebc 89cc 32bc b4e2 813c
00000280: 39f5 55bd 3244 183c ce89 0abc 8f81 c23b
00000290: 73e5 7a3c 664c 8f3c e6fa 123d 4f47 993c
000002a0: a9d1 88bc ecc7 ecbb b978 223d 716e cf3c
000002b0: bf78 893c 497d 783c f6ef 093d 0e9c 193a
000002c0: caf4 c23c 487f 083c b264 76bd 8449 49bd
000002d0: 4e30 f23c 9a24 dc3c b4d9 913c a3b0 a43c
000002e0: 4689 f5bb 035e 08bc 97cb 423c 0a81 153c
000002f0: 5bd0 8bbd 49e0 77bd 4018 9f3c ebb4 823b
00000300: cf59 8bbb 7f97 c13b 5f56 1f3d e314 44bb
00000310: 793b 9cbc 5772 c9bc 1f87 a7bd 9bd4 15be
00000320: 8f92 a3bd b485 0f3d 7915 8e3d 67f3 8f3d
00000330: 9128 383d cd92 743d 5a46 ee3c f808 c33d
00000340: 6681 123e 9736 bc3d babb f6bd 5e00 7d3d
00000350: 9000 5d3d 471b 853c 96fc fcbb f6bb 043d
00000360: 0e8a ed3c e296 843d df0d ba3d 0a8d e83d
00000370: 1b85 f2bd 4fca 0b3c 3c5a d73c b9ab 5cbc
00000380: 0ce1 edbc b76d 92bb f9b8 563c b065 a13b
00000390: eb07 503d 1203 3d3d 8940 f8bd ef32 793c
000003a0: 002d 86bb 7db3 4d3d 14a3 e0bb 1df2 263b
000003b0: 7551 2cbc 5d92 a43c 1d64 233d a8e2 cb3c
000003c0: 0fb4 22be 863d aabc fdb2 28bd 56d5 c4bc
000003d0: dc4a 103d fabf 0abb f915 753c 9897 083d
000003e0: 09c0 1cbc d81b 1c3c 6f12 d6bd 8667 30bd
000003f0: a42f 86bc 19c1 2d3c c62b 1f3c 53b9 163b
0.11557973 0.02378654 -0.0018533036 0.015708577 -0.01969249 0.0015108614 0.01656131 0.036754187
0.010802463 0.0026585653 0.09694477 0.008732655 -0.034522768 0.0029094475 -0.008354201 -0.017203994
-0.025175339 -0.021333477 -0.020474488 0.005023498 0.11248743 0.01716372 -0.01552271 0.011628075
0.012877604 0.025301937 -0.016496172 -0.022526512 0.0031082812 0.025210878 0.036856685 -0.011812145
-0.039866317 -0.031441394 -0.015615229 0.021707455 -0.003235364 -0.026663747 0.00025524947 0.0021653892
0.041398585 0.0069555207 -0.00029913866 -0.040410005 -0.021846615 0.0005635744 0.0050219004 0.017892754
-0.004202508 0.035877112 0.038147174 0.012910659 0.035894882 -0.0016216713 0.010187644 -0.003312526
0.045621138 0.034451995 0.007404987 0.017368685 0.008817732 0.019547027 0.03108562 -0.014427767
0.029573616 0.010132282 0.044797495 0.04108884 0.030867651 0.05891926 -0.012842286 0.0047147195
0.01794168 0.034063738 0.009808067 0.0121962 0.036489166 0.024309276 0.035254247 0.07111009
-0.052566595 -0.009024608 0.005517149 0.009524063 0.043672882 0.03808067 0.06285938 0.039043088
0.059875377 0.13729228 -0.075665265 -0.049136452 -0.031667214 -0.03509838 0.00721141 0.013163111
-0.005403633 0.010694795 0.034814965 0.11415315 -0.25501084 -0.11602435 -0.0595693 -0.04256578
-0.03742463 -0.036099076 0.005703977 -0.028734973 -0.017068239 -0.03975805 -0.10039654 0.013096023
0.08442 0.054371096 0.035445105 0.05398933 0.026555048 0.009171046 0.03465653 0.048146166
-0.02339578 0.050080422 0.041958265 0.008225448 0.0021872844 -0.010800741 -0.017085131 0.024714665
0.051440574 0.094906345 -0.026755122 0.008823667 0.019675419 -0.009551318 -0.015978118 -0.018116461
-0.0073867384 -0.013580407 0.017776057 0.051132247 0.011913772 -0.02385812 -0.01394576 0.033680458
0.050820664 0.018752888 8.815207e-05 0.020111755 0.015266553 0.014164263 -0.03692212 0.013735453
0.0021802522 0.042084575 0.027825365 0.012109374 0.0038305277 -0.019361233 -0.010913023 0.01585517
-0.052235816 0.009293603 -0.008455707 0.0059358547 0.015313494 0.017492484 0.035883807 0.01871076
-0.016701536 -0.007225981 0.03966591 0.025321217 0.016781209 0.015166589 0.03367611 0.0005859741
0.023798365 0.008331127 -0.060154624 -0.049142376 0.02956405 0.026872922 0.017804004 0.020103758
-0.007493171 -0.008323195 0.01188936 0.009125004 -0.0682685 -0.06051663 0.019420743 0.0039888523
-0.0042526494 0.0059079523 0.03890073 -0.0029919676 -0.019071328 -0.024590654 -0.08180069 -0.14631884
-0.07986938 0.03503962 0.06937689 0.07028847 0.044960562 0.059710313 0.02908628 0.09523195
0.14307174 0.091901 -0.12047525 0.06176793 0.053955615 0.016248358 -0.0077205403 0.032405816
0.028996494 0.06474091 0.09084677 0.11355026 -0.11841794 0.008532121 0.026288144 -0.013468676
-0.029037975 -0.0044686454 0.013105624 0.004925452 0.0507888 0.046145506 -0.12121684 0.015209897
-0.00409472 0.05022 -0.006855378 0.00254739 -0.010517468 0.020089323 0.039890397 0.024888352
-0.15889 -0.02078129 -0.04118632 -0.024027508 0.03522764 -0.0021171556 0.014958852 0.033347696
-0.009567269 0.009528123 -0.10452735 -0.043067478 -0.016380139 0.01060512 0.009715026 0.0022998645

fc1.bias f4 [10]
00000000: 3c7d e53c fb68 c2bb 6d87 653b a14a 3e3d
00000010: be33 8b3b d29b 853c 9069 3bbc 894b e5bb
00000020: d65b 0dbb 9a7e 5cbd
0.028013818 -0.005932925 0.0035023347 0.04645789 0.0042481115 0.016309652 -0.011438742 -0.00699753
-0.002156963 -0.053831674
