Samples/Tutorial Samples/PyTorch Image Classification/PyTorchTraining - Image Classification/myFirstModel.pth (torch, 210335 bytes, 26 tensors)

conv1.weight f4 [12, 3, 5, 5]
-0.05943027 -0.09749901 -0.043942 0.01975727 0.042261273 -0.22235 -0.06387139 -0.041994352
0.11507093 0.1541379 -0.22539091 -0.02245964 -0.0018017764 -0.062624134 0.14186688 -0.2441621
-0.2069728 -0.1788958 -0.040463544 0.087927766 -0.22283985 -0.235268 -0.07048438 -0.0011318511
-0.042591874 -0.17465861 -0.27798584 -0.18674836 -0.25604385 -0.124009155 -0.08998635 0.041602273
0.08246648 0.048276957 -0.04617519 0.036697604 0.0045128665 0.21712662 0.07441055 -0.1182556
-0.07356966 0.04967633 -0.048326164 -0.01629117 -0.0004149392 0.030119365 0.036680806 -0.0242063
-0.17557189 0.015553901 -0.07871178 -0.045331012 0.034198273 0.07816414 -0.10879289 0.023081267
0.1837891 0.3116794 0.28538802 0.13826936 0.12516809 0.38766366 0.46453285 0.37748998
0.119555995 0.22562826 0.32034788 0.2928497 0.09890616 -0.15493141 0.08342529 0.14476162
0.07909646 0.016797945 -0.21115534 0.053721465 -0.0001490313 -0.024211898 -0.3089607 -0.09986575
-0.13072883 -0.22644626 0.017682731 -0.0012316386 0.15958631 -0.010870694 -0.00089704397 0.2471932
0.17064455 0.2401879 0.07672049 -0.07070674 0.17131434 -0.07982206 -0.14214882 0.17346448
-0.010698481 -0.008304883 -0.061145302 -0.0006939398 -0.2282434 -0.15284769 0.012795709 -0.094787255
0.068332545 -0.13763125 -0.28327236 0.099818625 -0.009373546 0.26392123 -0.24733162 -0.13375787
0.11580685 0.09867543 0.20429969 0.00395789 -0.16995165 0.13110788 0.011921438 -0.16383642
-0.08883155 -0.122855745 -0.09499313 -0.11326016 -0.10537371 -0.0541417 -0.016515253 0.06518989
-0.13000949 0.1530382 -0.062202465 -0.19779687 0.22876568 0.001097258 0.23050736 -0.1661843
-0.21196741 0.1849292 0.1554794 0.05282847 -0.071292385 -0.022076836 0.22489616 0.14062123
-0.15823096 0.018876685 0.07159035 0.05753788 0.21530522 0.11294772 0.03351723 -0.04509276
0.004808093 0.15518925 -0.012582592 -0.02960662 -0.0014525227 -0.10248104 -0.127468 0.01924245
0.0022879925 0.058753744 0.18165538 0.28973007 0.22186713 0.013471941 -0.015300076 -0.27966136
-0.25373456 -0.1502213 -0.15961516 -0.026801454 -0.08580998 -0.18693799 -0.18402451 0.16660386
0.042478994 -0.1429621 -0.07615408 -0.13913245 -0.04524469 0.02627158 -0.05188074 -0.0067326133
-0.13273342 0.17124651 0.09474176 0.09998694 0.34236404 0.22030297 -0.021601988 -0.11796134
-0.2515402 -0.017589731 0.040224962 -0.11447902 -0.07402923 -0.11458917 -0.26013172 -0.09466908
0.08572406 0.087941036 -0.08252459 -0.051532812 -0.16282879 0.17289649 0.0078026806 -0.11931954
-0.04960332 -0.072223544 0.28170836 0.3169756 0.2926937 0.26800433 0.17723732 0.010551629
0.14574565 -0.17464633 -0.05184516 0.042012773 0.14801674 -0.043737613 -0.04892607 -0.020111207
-0.054980796 0.0713398 0.20528038 0.1244655 0.032533325 -0.08974021 0.10162048 0.07438614
-0.33051473 0.033819534 0.15553126 -0.18132402 -0.23504078 -0.31600666 0.08287508 0.10137426
-0.23875847 0.18186286 -0.2468795 -0.10124325 -0.18314452 -0.082950585 0.26928335 -0.040740084
0.053425126 0.047882915 0.09017182 0.09730054 -0.03852139 -0.021630095 -0.054440066 0.0037563683
00000000: 286d 73bd 90ad c7bd 87fc 33bd 00da a13c
00000010: 281a 2d3d b8af 63be 01cf 82bd 4502 2cbd
00000020: 4faa eb3d 53d6 1d3e e0cc 66be 47fd b7bc
00000030: 9529 ecba 1541 80bd 8d45 113e a105 7abe
00000040: adf0 53be 7630 37be 1abd 25bd 7913 b43d
00000050: 2130 64be 18ea 70be 1d5a 90bd 9f5a 94ba
00000060: d174 2ebd b5d9 32be 2954 8ebe f63a 3fbe
00000070: 2e18 83be 83f8 fdbd c34a b8bd 2567 2a3d
00000080: 30e4 a83d 0fbe 453d 3222 3dbd 3a50 163d
00000090: abe0 933b 7156 5e3e 8f64 983d fe2f f2bd
000000a0: b1ab 96bd 6879 4b3d a8f1 45bd 0f75 85bc
000000b0: 328c d9b9 e3bc f63c 9d3e 163d 4a4c c6bc
000000c0: 1ec9 33be cad5 7e3c a433 a1bd 03ad 39bd
000000d0: 7d13 0c3d 8514 a03d cfce debd ed14 bd3c
000000e0: 3633 3c3e 7194 9f3e 611e 923e 7c96 0d3e
000000f0: 102c 003e da7b c63e 40d7 ed3e 5e46 c13e
00000100: c6d9 f43d 180b 673e a304 a43e 65f0 953e
00000110: 508f ca3d 57a6 1ebe e1da aa3d 643c 143e
00000120: 53fd a13d d89b 893c 1b39 58be 0a0b 5c3d
00000130: 4945 1cb9 0858 c6bc 1930 9ebe 6a86 ccbd
00000140: c7dd 05be 87e1 67be 60db 903c ef6e a1ba
00000150: 986a 233e ff1a 32bc 9a27 6bba 3720 7d3e
00000160: 72bd 2e3e d1f3 753e a21f 9d3d b2ce 90bd
00000170: 076d 2f3e c079 a3bd 768f 11be aca0 313e
00000180: af48 2fbc 3411 08bc 7f73 7abd 83e9 35ba
00000190: a3b8 69be 1b84 1cbe 18a5 513c d21f c2bd
000001a0: eff1 8b3d 35ef 0cbe 1309 91be b56d cc3d
000001b0: 8093 19bc af20 873e 8044 7dbe d3f7 08be
000001c0: 242c ed3d 5816 ca3d f033 513e 30b1 813b
000001d0: ce07 2ebe 2541 063e 2352 433c bcc4 27be
000001e0: 51ed b5bd cb9b fbbd c28b c2bd f1f4 e7bd
000001f0: 2cce d7bd b0c3 5dbd ff4a 87bc 4782 853d
00000200: 3521 05be 0cb6 1c3e 03c8 7ebd 438b 4abe
00000210: 8d41 6a3e ded1 8f3a 1f0a 6c3e 382c 2abe
00000220: fc0d 59be 155e 3d3e fe35 1f3e aa62 583d
00000230: be01 92bd 7bda b4bc 2e4b 663e 03ff 0f3e
00000240: 4c07 22be 47a3 9a3c f69d 923d d7ac 6b3d
00000250: f978 5c3e 2251 e73d 5d49 093d 30b3 38bd
00000260: 358d 9d3b eee9 1e3e 3727 4ebc 9589 f2bc
00000270: 9362 beba 94e1 d1bd f986 02be 58a2 9d3c
00000280: 25f2 153b c4a7 703d de03 3a3e 8057 943e
00000290: 2331 633e 6bb9 5c3c 2cad 7abc c62f 8fbe
000002a0: 7fe9 81be 9dd3 19be 2872 23be b98e dbbc
000002b0: 25bd afbd ac6c 3fbe ec70 3cbe 349a 2a3e
000002c0: 74fe 2d3d a864 12be acf6 9bbd bd78 0ebe
000002d0: 7f52 39bd 7f37 d73c e680 54bd 419d dcbb
000002e0: 45eb 07be 3f5b 2f3e f807 c23d f4c5 cc3d
000002f0: 574a af3e 1a97 613e a7f6 b0bc b795 f1bd
00000300: e1c9 80be 5718 90bc eec2 243d fa73 eabd
00000310: a39c 97bd baad eabd fc2f 85be dde1 c1bd
00000320: 1990 af3d 6e1a b43d a702 a9bd 1214 53bd
00000330: 97bc 26be c70b 313e a1ad ff3b ce5d f4bd
00000340: da2c 4bbd f0e9 93bd 143c 903e a04a a23e
00000350: f3db 953e dd37 893e b37d 353e bde0 2c3c
00000360: 593e 153e 7dd6 32be 975b 54bd 9615 2c3d
00000370: b391 173e 3626 33bd b466 48bd 42c0 a4bc
00000380: 8b33 61bd 9a1a 923d 0535 523e c5e7 fe3d
00000390: aa41 053d b7c9 b7bd 661e d03d c357 983d
000003a0: 3a39 a9be 5a86 0a3d 9643 1f3e 01ad 39be
000003b0: 88ae 70be a0cb a1be 69ba a93d 4f9d cf3d
000003c0: 1a7d 74be 423a 3a3e fbcd 7cbe 9f58 cfbd
000003d0: 3d8a 3bbe ffe1 a9bd 82df 893e 13df 26bd
000003e0: 4ed4 5a3d e020 443d 01ac b83d 8145 c73d
000003f0: 9bc8 1dbd 9931 b1bc 8cfc 5ebd 672d 763b

conv1.bias f4 [12]
0.056605473 -0.09098564 -0.053238567 -0.017506924 -0.16185662 -0.107993335 -0.16809367 -0.077888
-0.011894944 -0.10971406 -0.05871128 0.07729222
00000000: 24db 673d ae56 babd af10 5abd ae6a 8fbc
00000010: bebd 25be 9c2b ddbd bf20 2cbe be83 9fbd
00000020: 03e3 42bc c4b1 e0bd 3d7b 70bd 624b 9e3d

bn1.weight f4 [12]
0.8497517 0.66717046 0.6853521 0.9000574 0.7336695 0.59548867 0.7137496 0.62335795
0.8463422 0.64710855 0.6213116 1.3031673
00000000: 5489 593f afcb 2a3f 3c73 2f3f 296a 663f
00000010: c4d1 3b3f f271 183f 4bb8 363f 6394 1f3f
00000020: e2a9 583f e8a8 253f 470e 1f3f 30ce a63f

bn1.bias f4 [12]
-0.07025551 0.38800594 -0.17094609 0.44831166 -0.086893044 0.06875229 -0.23774412 0.25315732
0.12519847 -0.100484885 0.05006881 0.7262743
00000000: 1fe2 8fbd b7a8 c63e 7e0c 2fbe 1b89 e53e
00000010: fbf4 b1bd 00ce 8c3d 3273 73be d69d 813e
00000020: 0734 003e 05cb cdbd f414 4d3d 1ded 393f

bn1.running_mean f4 [12]
-0.21095055 -0.041728225 -0.03940643 -0.003543513 0.022166936 0.06752286 0.036631905 -0.005585666
-0.0001506492 -0.074655384 -0.0052130036 0.010724545
00000000: 6c03 58be 37eb 2abd a368 21bd 483a 68bb
00000010: 6f97 b53c 6d49 8a3d 560b 163d f607 b7bb
00000020: 96f7 1db9 ece4 98bd d8d1 aabb 01b6 2f3c

bn1.running_var f4 [12]
0.5387903 0.17712034 0.13529195 0.08160554 0.24499919 0.16493618 0.23244146 0.06651945
0.057897598 0.18211092 0.11055539 0.05986366
00000000: 29ee 093f 095f 353e f989 0a3e ce20 a73d
00000010: 11e1 7a3e 08e5 283e 2205 6e3e 593b 883d
00000020: 0826 6d3d 497b 3a3e dd6a e23d 9933 753d

conv2.weight f4 [12, 12, 5, 5]
-0.120957784 -0.056496162 0.01445763 0.10874968 0.10889321 -0.20037718 -0.12432528 -0.07511556
0.039595388 0.08560387 -0.10347566 -0.08376504 -0.06747282 0.059651896 0.08669076 -0.014315284
0.03434452 0.05256427 0.08599218 0.031136815 -0.021083467 0.013280805 0.086012535 0.06348108
0.061696574 -0.013480033 0.040106524 -0.032601953 -0.016760454 -0.117310345 0.00510751 -0.07740637
-0.16101962 -0.13679996 -0.14383692 -0.013398602 -0.048623774 -0.024733195 0.03480067 0.06500637
0.10618795 0.12675247 0.18451609 0.15577273 0.13852009 0.14458445 0.087725304 0.1447251
0.005795512 0.029043147 -0.087359026 0.04420465 0.08092592 0.025841134 0.059802335 -0.0842703
-0.06512801 0.015560681 -0.0403247 0.013592176 -0.2668316 -0.23019896 -0.24982083 -0.21189342
-0.14358862 0.048850685 0.15837902 0.14545682 0.08537606 0.04090938 -0.0884824 0.006569635
0.08191589 0.0071881646 -0.011202045 0.014070079 -0.010382756 -0.102317095 -0.16368075 -0.16636853
0.13262782 0.22249018 0.14883104 0.16856211 0.08789525 0.004296786 0.18236886 0.11918541
0.13115443 0.08103792 -0.02740806 -0.10635329 -0.2077422 -0.19905119 -0.07616369 -0.15516113
-0.25754532 -0.27954784 -0.27748123 -0.13085164 -0.22981891 -0.21415254 -0.27555928 -0.31441805
-0.31457037 0.09981375 0.07881835 0.07822416 0.014858063 0.011222954 0.22116253 0.14689092
0.17835738 0.1604563 0.11991856 0.15594225 0.19943322 0.14192489 0.08646538 0.15545173
0.06701436 -0.02479271 -0.06163084 -0.054656688 -0.067265496 0.05702038 0.02367432 -0.049234968
-0.09607877 0.057944678 0.042208426 0.03195165 -0.053789202 -0.101229556 0.060383555 -0.11247594
-0.18231636 -0.31642678 -0.3490353 -0.21337774 -0.29670033 -0.2880325 -0.37178805 -0.3218643
-0.28132212 0.009467247 0.016301988 0.055107035 -0.006960221 -0.05764898 -0.07229932 -0.109117955
-0.09114527 -0.046938986 0.025381027 -0.08704277 -0.06877512 -0.02183263 -0.03127408 0.0077079595
-0.081885144 -0.008719902 -0.028662503 -0.06827703 -0.034067806 -0.10129291 -0.12328915 -0.1305369
0.0007625107 0.01565815 -0.11817857 -0.08950254 -0.047186747 0.10342019 0.1816207 -0.43637785
-0.45635095 -0.29659432 -0.1076085 -0.089208856 0.0008401204 0.030684538 0.08802665 0.03397944
-0.064867884 0.119916014 0.00958807 0.043925986 -0.023111135 -0.075412884 0.28081217 0.3044405
0.30627176 0.14889099 0.10669867 0.15200369 0.10517246 0.067895725 -0.024709577 -0.028679427
-0.24349937 -0.1370641 -0.23794301 -0.20859961 -0.104934156 0.086061694 0.20702887 0.1852585
0.110961765 0.16455626 0.0038846426 0.001499123 -0.06383078 0.03394601 0.09660367 0.16194212
0.16405332 0.0054243123 0.03637748 0.07772247 -0.09920654 -0.03594577 -0.104128815 0.005911628
-0.069551535 -0.010361507 0.05946351 0.10207447 0.006314251 0.0384835 -0.09191309 -0.049749717
-0.050664548 -0.087257825 -0.022677489 -0.057357658 0.0530398 -0.034259893 -0.06100119 -0.011618019
0.2045683 0.25000182 0.3156 0.28126144 0.19466086 -0.019711653 0.09209014 0.17418523
0.15806216 0.116206795 -0.14248878 -0.13518956 -0.14138307 -0.16978373 -0.11095037 -0.28268024
00000000: b7b8 f7bd 8568 67bd b2df 6c3c 27b8 de3d
00000010: 6703 df3d ad2f 4dbe 419e febd 30d6 99bd
00000020: c62e 223d 1551 af3d 0ceb d3bd 018d abbd
00000030: 312f 8abd 8c55 743d ed8a b13d a78a 6abc
00000040: d7ac 0c3d a24d 573d ab1c b03d a212 ff3c
00000050: 3cb7 acbc bc97 593c 5727 b03d 5e02 823d
00000060: 8cb5 7c3d 5bdb 5cbc bd46 243d a089 05bd
00000070: 384d 89bc 6840 f0bd e65c a73b 3b87 9ebd
00000080: 54e2 24be 4a15 0cbe fc49 13be cf85 5bbc
00000090: b929 47bd 459d cabc 268b 0e3d 0f22 853d
000000a0: 1179 d93d 66cb 013e c9f1 3c3e e382 1f3e
000000b0: 36d8 0d3e f20d 143e 53a9 b33d d132 143e
000000c0: 47e8 bd3b e5eb ed3c 4ae9 b2bd ef0f 353d
000000d0: 7dbc a53d c9b0 d33c 4bf3 743d e895 acbd
000000e0: d661 85bd 3af2 7e3c 832b 25bd b8b1 5e3c
000000f0: 279e 88be 47b9 6bbe 08d1 7fbe 97fa 58be
00000100: e508 13be a817 483d 1c2e 223e a2f2 143e
00000110: a5d9 ae3d 9890 273d 4336 b5bd 1846 d73b
00000120: 85c3 a73d b28a eb3b c888 37bc 3086 663c
00000130: 6f1c 2abc a08b d1bd ed9b 27be 835c 2abe
00000140: 96cf 073e 77d4 633e 2a67 183e 8c9b 2c3e
00000150: 6d02 b43d 0ecc 8c3b e7be 3a3e 7b17 f43d
00000160: 594d 063e 36f7 a53d de86 e0bc c1cf d9bd
00000170: 5fba 54be 13d4 4bbe b5fb 9bbd 8fe2 1ebe
00000180: fbdc 83be e520 8fbe 0512 8ebe f9fd 05be
00000190: a655 6bbe ce4a 5bbe 1b16 8dbe 67fb a0be
000001a0: 5e0f a1be 276b cc3d 846b a13d fd33 a03d
000001b0: 3c6f 733c 7be0 373c 6e78 623e 936a 163e
000001c0: 51a3 363e a84e 243e dd97 f53d 53af 1f3e
000001d0: 3938 4c3e c254 113e c314 b13d bd2e 1f3e
000001e0: d33e 893d 151a cbbc 9f70 7cbd b1df 5fbd
000001f0: 7ec2 89bd 348e 693d a6f0 c13c 9baa 49bd
00000200: f2c4 c4bd 6657 6d3d bee2 2c3d bcdf 023d
00000210: 1152 5cbd 7151 cfbd bf54 773d c959 e6bd
00000220: 24b1 3abe b102 a2be c1b4 b2be b27f 5abe
00000230: 1be9 97be ff78 93be 015b bebe 66cb a4be
00000240: 7409 90be 831c 1b3c bf8b 853c eab7 613d
00000250: 9112 e4bb 5621 6cbd aa11 94bd 3c79 dfbd
00000260: 5faa babd 1843 40bd dfeb cf3c 7b43 b2bd
00000270: f8d9 8cbd 58da b2bc 4019 00bd 0d93 fc3b
00000280: 66b3 a7bd ebdd 0ebc a0cd eabc d4d4 8bbd
00000290: af8a 0bbd a872 cfbd 067f fcbd 77ab 05be
000002a0: 3ae3 473a 8545 803c 9b07 f2bd 1c4d b7bd
000002b0: e446 41bd f7cd d33d c7fa 393e eb6c dfbe
000002c0: d5a6 e9be 36db 97be d861 dcbd 22b3 b6bd
000002d0: 873b 5c3a 245e fb3c 5147 b43d 062e 0b3d
000002e0: 74d9 84bd 8796 f53d 4817 1d3c bceb 333d
000002f0: 9053 bdbc 1272 9abd 9dc6 8f3e a0df 9b3e
00000300: a7cf 9c3e e176 183e d584 da3d dba6 1b3e
00000310: a964 d73d ea0c 8b3d bd6b cabc 1ef1 eabc
00000320: e657 79be 885a 0cbe 55a7 73be 239b 55be
00000330: b8e7 d6bd 1d41 b03d 60ff 533e 67b4 3d3e
00000340: ec3f e33d 7081 283e 7d95 7e3b 397e c43a
00000350: b6b9 82bd f90a 0b3d 25d8 c53d 28d4 253e
00000360: 98fd 273e 6ebe b13b 8d00 153d f52c 9f3d
00000370: cc2c cbbd df3b 13bd 7d41 d5bd 54b6 c13b
00000380: 0971 8ebd 4fc3 29bc 0290 733d 6b0c d13d
00000390: c7e7 ce3b e0a0 1d3d ee3c bcbd 5cc6 4bbd
000003a0: a185 4fbd 3bb4 b2bd 24c6 b9bc ddef 6abd
000003b0: 4340 593d 1a54 0cbd 62dc 79bd 8159 3ebc
000003c0: 5a7a 513e 3d00 803e 5396 a13e 8001 903e
000003d0: 2d55 473e 557a a1bc c199 bc3d 9d5d 323e
000003e0: 0cdb 213e d4fd ed3d 94e8 11be 226f 0abe
000003f0: b9c6 10be c9db 2dbe f339 e3bd 77bb 90be

conv2.bias f4 [12]
-0.055410076 -0.041464113 -0.11214054 -0.16492182 -0.19962585 -0.05191122 -0.17774646 0.061831955
-0.18225642 -0.014747086 -0.06279644 -0.18639661
00000000: adf5 62bd 46d6 29bd f0a9 e5bd 44e1 28be
00000010: b86a 4cbe dca0 54bd 2b03 36be 8143 7d3d
00000020: 6da1 3abe c39d 71bc 6c9b 80bd c1de 3ebe

bn2.weight f4 [12]
0.77239305 0.82522875 0.73111135 0.83023006 0.8644399 0.7970135 0.80201715 0.96550614
0.9934076 0.9111081 0.83842856 0.9572995
00000000: 8dbb 453f 3142 533f 1d2a 3b3f f589 543f
00000010: ef4b 5d3f 1409 4c3f ff50 4d3f 692b 773f
00000020: f64f 7e3f 613e 693f 41a3 563f 9411 753f

bn2.bias f4 [12]
-0.1413817 -0.27509317 -0.236205 -0.24252905 -0.2660618 -0.23488656 -0.24388923 -0.043048397
-0.3922061 -0.23754051 -0.15389784 -0.3329471
00000000: 5dc6 10be 03d9 8cbe b9df 71be 8959 78be
00000010: 4139 88be 1a86 70be 19be 79be 8453 30bd
00000020: 3dcf c8be d23d 73be 6597 1dbe 0b78 aabe

bn2.running_mean f4 [12]
-1.1905371 -0.16706032 -1.2683355 -0.8423625 -1.0491447 -0.6435001 -1.1746821 -2.1330566
-0.76157075 -1.5328473 -0.3487741 -0.54098076
00000000: 8563 98bf dc11 2bbe d158 a2bf 12a5 57bf
00000010: 604a 86bf 6cbc 24bf fc5b 96bf 0084 08c0
00000020: 4df6 42bf 5734 c4bf 8592 b2be b77d 0abf

bn2.running_var f4 [12]
4.262256 4.232354 5.297645 6.8346324 5.6391287 3.238028 3.557941 5.320855
4.1273904 9.520553 4.4986105 3.9434164
00000000: 6764 8840 726f 8740 4f86 a940 4fb5 da40
00000010: be73 b440 da3b 4f40 4eb5 6340 7244 aa40
00000020: 9513 8440 2f54 1841 9ef4 8f40 ef60 7c40

conv4.weight f4 [24, 12, 5, 5]
0.004152417 -0.124488614 -0.23832189 -0.30547765 -0.20558578 0.14817503 0.052068435 0.056336235
0.09407076 0.06728466 0.08089603 0.030236796 0.024817815 0.038324244 -0.045752514 0.18738517
0.11433422 5.2784773e-05 0.0708726 -0.035498783 0.061245643 0.17403275 0.18832296 0.12547024
-0.09427777 -0.09067518 -0.10931144 -0.035455037 0.11881676 0.15449277 -0.050580867 0.10342239
0.0925784 0.04765923 0.057801697 0.10652654 0.051262025 0.012128922 0.024383718 0.06518996
0.3044956 0.12114371 0.122015804 -0.0066812634 -0.16302434 0.24827851 0.106000744 -0.041050334
-0.16593023 -0.1254016 0.1646402 0.16646239 0.031505443 -0.032609742 -0.08601516 0.0966855
0.13346723 0.08644461 0.004499457 -0.12537734 0.13784276 0.063395314 -0.020941943 -0.07401066
-0.09139041 0.09412796 0.07088522 -0.08125298 -0.15705629 -0.009639046 0.14292207 0.067135066
0.07668009 0.0374087 0.025822911 0.030296845 -0.004670993 0.19024798 0.2134826 -0.00964888
0.14132948 0.2176133 0.2169684 0.14395192 -0.061413188 0.09836542 0.21301907 0.14604042
0.13070224 -0.14445832 0.14178397 0.18849564 0.09136833 -0.0049618464 -0.37467325 0.19736138
0.090792224 -0.062473804 0.083276406 -0.14421634 -0.034443535 -0.09861789 0.12072553 -0.0038922245
-0.09111262 -0.0068424772 -0.11296775 0.0142280655 -0.09323747 -0.15752766 -0.12619738 -0.087031014
-0.050928377 -0.24297115 -0.28564125 -0.14009781 -0.17992127 -0.11720734 -0.29938468 -0.2939253
0.02883852 -0.023603301 0.09127187 0.042059574 -0.17399894 0.04260971 0.004828006 0.06747659
0.01968356 0.18754348 0.11023714 0.048878144 0.008194747 0.036748167 0.09974126 -0.02809343
-0.16669358 -0.066594064 -0.04593944 -0.11688694 0.027954994 -0.043941915 -0.09462839 -0.10268901
-0.16284224 0.092573285 0.12745981 0.019398564 -0.0025474862 -0.18708007 -0.14568017 -0.17186527
-0.06877648 0.05394487 -0.024731068 0.092904985 0.18867321 0.19033629 0.23168659 0.08460221
0.1445321 0.2151811 0.14491197 0.09672627 0.0036365378 0.13471214 0.07334126 0.06343766
0.06555692 0.08059089 0.008717509 -0.025836239 -0.032716565 0.004965221 -0.09015417 0.045193408
-0.015507856 -0.13608654 -0.12481489 -0.16617432 0.03255458 0.05469241 0.056913678 -0.063789554
0.0067157345 0.026790263 0.046552703 0.0075371796 -0.11217136 -0.17047441 0.07621155 0.008641071
-0.07965864 -0.10493416 -0.16506058 0.12181465 -0.09609839 0.027852476 0.038615026 0.013051155
0.039778885 0.14229953 0.108170874 0.07889573 -0.1436316 0.00041412824 -0.14841278 -0.0987406
-0.11831918 -0.18912992 -0.16480567 -0.27084717 -0.1391524 -0.21681397 -0.386521 -0.14339498
-0.10460741 -0.10336521 -0.14740054 -0.12639496 0.050816733 0.014328769 0.086990185 0.10192748
0.06047629 -0.0773351 0.0032859659 0.0258735 0.18937097 0.100588165 0.023880946 0.09718536
0.15391703 0.17834404 0.03704296 0.084470004 0.15811245 0.041974008 -0.024234459 0.0070853713
0.0851365 0.029392079 -0.10392952 -0.091337375 -0.019725801 0.11317905 -0.0024976905 -0.11064347
-0.00016651597 -0.15671916 -0.11101428 -0.053321384 0.03999398 -0.007622395 -0.15893446 -0.042008784
00000000: 0011 883b e3f3 febd a70a 74be 9167 9cbe
00000010: 1485 52be 32bb 173e b645 553d d3c0 663d
00000020: 2ca8 c03d 8acc 893d d1ac a53d 28b3 f73c
00000030: bb4e cb3c e2f9 1c3d fd66 3bbd e6e1 3f3e
00000040: 0f28 ea3d 3865 5d38 a725 913d 2c67 11bd
00000050: b6dc 7a3d a435 323e bcd7 403e 457b 003e
00000060: b414 c1bd e9b3 b9bd adde dfbd 4d39 11bd
00000070: 3456 f33d 5a33 1e3e e22d 4fbd 1ecf d33d
00000080: bf99 bd3d 5336 433d 79c1 6c3d 962a da3d
00000090: 21f8 513d 63b8 463c 5dc0 c73c 5082 853d
000000a0: d9e6 9b3e 321a f83d 6ce3 f93d 80ee dabb
000000b0: daef 26be b93c 7e3e eb16 d93d 6524 28bd
000000c0: 9de9 29be 4769 00be 7197 283e 1e75 2a3e
000000d0: da0b 013d cb91 05bd b728 b0bd 0c03 c63d
000000e0: a2ab 083e df09 b13d 2e70 933b eb62 00be
000000f0: a726 0d3e 67d5 813d 708e abbc e792 97bd
00000100: e52a bbbd 29c6 c03d 452c 913d f667 a6bd
00000110: 5dd3 20be 17ed 1dbc 2a5a 123e 1c7e 893d
00000120: 730a 9d3d dd39 193d 928a d33c 1731 f83c
00000130: 210f 99bb 5ed0 423e 2f9b 5a3e 5616 1ebc
00000140: adb8 103e 05d6 5e3e f72c 5e3e 2268 133e
00000150: 658c 7bbd cf73 c93d ac21 5a3e 9f8b 153e
00000160: cfd6 053e e2ec 13be d12f 113e 0005 413e
00000170: 521f bb3d fc96 a2bb 2cd5 bfbe 1a19 4a3e
00000180: 46f1 b93d 88e4 7fbd d28c aa3d 73ad 13be
00000190: aa14 0dbd 2df8 c9bd f23e f73d b114 7fbb
000001a0: 4199 babd dc36 e0bb a35b e7bd d51c 693c
000001b0: 49f3 bebd ee4e 21be e339 01be 513d b2bd
000001c0: 469a 50bd 6ecd 78be 923f 92be cd75 0fbe
000001d0: 483d 38be 670a f0bd f348 99be 607d 96be
000001e0: c33e ec3c b65b c1bc bfec ba3d a946 2c3d
000001f0: c72c 32be 8587 2e3d 4034 9e3b 2b31 8a3d
00000200: 6b3f a13c 660b 403e 02c4 e13d 7334 483d
00000210: 4343 063c 3f85 163d 2545 cc3d 3124 e6bc
00000220: b9b1 2abe 7862 88bd ff2a 3cbd 6c62 efbd
00000230: df01 e53c 70fc 33bd 88cc c1bd 9e4e d2bd
00000240: 1ec0 26be 1097 bd3d d384 023e bde9 9e3c
00000250: baf3 26bb eb91 3fbe 2f2d 15be 73fd 2fbe
00000260: afda 8cbd 4cf5 5c3d cf98 cabc f844 be3d
00000270: 8d33 413e 84e7 423e 403f 6d3e ec43 ad3d
00000280: 3900 143e 6f58 5c3e ce63 143e 6c18 c63d
00000290: fb52 6e3b fbf1 093e f133 963d 9beb 813d
000002a0: b542 863d d60c a53d e2d3 0e3c 85a6 d3bc
000002b0: ce01 06bd 4bb3 a23b c0a2 b8bd b91c 393d
000002c0: aa14 7ebc 455a 0bbe f39e ffbd 9a29 2abe
000002d0: f457 053d 2605 603d 511e 693d 19a4 82bd
000002e0: aa0f dc3b 4177 db3c 0cae 3e3d 72fa f63b
000002f0: 19ba e5bd d890 2ebe cd14 9c3d 4793 0d3c
00000300: 1224 a3bd b9e7 d6bd a405 29be f679 f93d
00000310: 3ccf c4bd e02a e43c ca2a 1e3d 83d4 553c
00000320: 2fef 223d f8b6 113e b188 dd3d 1694 a13d
00000330: 2a14 13be 5a1f d939 85f9 17be 8338 cabd
00000340: 5451 f2bd 46ab 41be d1c2 28be 7bac 8abe
00000350: f77d 0ebe 7b04 5ebe 15e6 c5be 22d6 12be
00000360: 693c d6bd 24b1 d3bd 2bf0 16be ae6d 01be
00000370: 3525 503d 37c3 6a3c e927 b23d 5bbf d03d
00000380: fcb5 773d dd61 9ebd 5c59 573b aaf4 d33c
00000390: 77ea 413e 2b01 ce3d f9a1 c33c 1e09 c73d
000003a0: 6d9c 1d3e d29f 363e 5cba 173d 9cfe ac3d
000003b0: 3be8 213e f0ec 2b3d 5887 c6bc 672c e83b
000003c0: 0c5c ae3d a8c7 f03c 00d9 d4bd 170f bbbd
000003d0: 0198 a1bc 6bca e73d 4bb0 23bb 0b99 e2bd
000003e0: ca9a 2eb9 fd7a 20be 745b e3bd 8667 5abd
000003f0: bad0 233d 49c5 f9bb b7bf 22be 6711 2cbd

conv4.bias f4 [24]
0.05191825 0.035390288 -0.122476116 0.02072394 0.09772724 -0.06673027 -0.1047808 0.16925901
0.07118964 -0.029844938 0.008143606 -0.055927347 -0.019139376 -0.051063746 -0.05969505 -0.024899283
0.008349503 -0.028264433 -0.12378193 0.13608977 0.08825939 -0.034879483 -0.032753773 -0.029273411
00000000: 3ba8 543d 68f5 103d c2d4 fabd 41c5 a93c
00000010: 3825 c83d e1a9 88bd 5197 d6bd 3c52 2d3e
00000020: e0cb 913d 5f7d f4bc c26c 053c 1314 65bd
00000030: 2eca 9cbc 3828 51bd cc82 74bd 95f9 cbbc
00000040: 5bcc 083c d08a e7bc 6181 fdbd 1e5b 0b3e
00000050: 57c1 b43d cadd 0ebd d228 06bd cbce efbc

bn4.weight f4 [24]
0.8726253 0.7949184 0.7394375 0.76427144 0.716081 0.7993182 0.8225868 0.72109485
0.7420384 0.9127301 0.8698979 0.75155324 0.7031518 0.71289796 0.8176466 0.81308657
0.849604 1.1550791 0.8678247 1.0159645 0.72228724 0.80183077 0.867897 0.83738226
00000000: 5f64 5f3f c67f 4b3f c74b 3d3f 4ba7 433f
00000010: 1651 373f 1ea0 4c3f 0c95 523f ac99 383f
00000020: 3bf6 3d3f aea8 693f a1b1 5e3f cb65 403f
00000030: c201 343f 7b80 363f 4a51 513f 7126 503f
00000040: a67f 593f a2d9 933f c229 5e3f 200b 823f
00000050: d1e7 383f c844 4d3f 7f2e 5e3f af5e 563f

bn4.bias f4 [24]
-0.10464505 -0.032136515 -0.23402989 -0.055577356 0.017788867 -0.04648042 -0.18973154 -0.00094707106
0.22143626 -0.08855251 -0.018331662 -0.12385199 -0.069523044 -0.025957003 -0.11455662 0.017969333
-0.1772111 -0.031796053 -0.15923281 -0.036618408 -0.09953357 -0.0868779 -0.1013436 -0.18842794
00000000: 2550 d6bd 94a1 03bd 88a5 6fbe 15a5 63bd
00000010: f5b9 913c 4162 3ebd fc48 42be dd44 78ba
00000020: 30c0 623e 055b b5bd 482c 96bc 1da6 fdbd
00000030: 1962 8ebd c8a3 d4bc a99c eabd 6c34 933c
00000040: d476 35be 943c 02bd ed0d 23be 2ffd 15bd
00000050: 42d8 cbbd 0aed b1bd 3c8d cfbd 41f3 40be

bn4.running_mean f4 [24]
-0.584045 -1.3533133 -0.2727525 -2.0684524 0.6108107 -2.9814885 0.2904202 1.237683
-0.6475793 -3.1259022 -0.32317173 -1.1942952 -0.14278866 -0.6843798 -3.7559466 -2.9332693
1.6560495 -2.4738317 -0.9449805 0.61651134 -0.17910725 0.3568374 -2.8367558 -1.8002485
00000000: f983 15bf 5f39 adbf 37a6 8bbe 8661 04c0
00000010: 175e 1c3f b5d0 3ec0 f5b1 943e 666c 9e3f
00000020: c2c7 25bf c80e 48c0 c476 a5be aade 98bf
00000030: 3137 12be 8433 2fbf 6e61 70c0 afba 3bc0
00000040: 6ef9 d33f 4253 1ec0 3eea 71bf b0d3 1d3f
00000050: e467 37be 64b3 b63e 688d 35c0 8b6e e6bf

bn4.running_var f4 [24]
3.382709 2.7708354 2.7799542 3.046706 2.7384775 3.5932875 2.6755865 3.7663667
2.830535 4.8672466 2.3429015 2.8483129 2.7037718 3.269649 3.8313088 4.518543
3.5363173 5.848782 3.1710534 2.3815424 2.8401768 2.449526 4.314509 2.6235347
00000000: 4e7e 5840 5e55 3140 c5ea 3140 3bfd 4240
00000010: 3743 2f40 6cf8 6540 cf3c 2b40 270c 7140
00000020: 7c27 3540 7cc0 9b40 19f2 1540 c24a 3640
00000030: 990a 2d40 ee41 5140 2a34 7540 e797 9040
00000040: 0653 6240 3929 bb40 8af2 4a40 316b 1840
00000050: 75c5 3540 09c5 1c40 7510 8a40 fee7 2740

conv5.weight f4 [24, 24, 5, 5]
0.1597646 0.09268032 0.1365338 0.08752985 -0.23714519 0.030237049 -0.015673174 0.064860575
0.16182698 0.038632575 -0.11275888 -0.07967362 -0.14840087 0.18552582 0.14290237 -0.021265412
0.042192 0.08632555 0.25525433 0.10018557 -0.039715752 0.03236701 -0.025743375 -0.007767812
0.007827454 0.06667093 0.21891353 -0.19885866 -0.1110366 -0.0040267557 -0.107874855 0.16980846
0.0928689 0.2383967 0.21857284 -0.37217724 -0.12061194 -0.08241922 0.0005275292 -0.1765354
-0.29643783 -0.18255912 0.03929814 -0.10299665 -0.27257207 -0.048220195 -0.021838127 0.22060475
0.12941507 -0.12201541 -0.45716202 -0.4079918 -0.4846833 -0.6521191 -0.32430142 -0.0954699
-0.09081383 0.043868802 -0.12581891 0.0017578416 -0.23282535 -0.17713164 -0.32104897 -0.25961876
-0.046213105 -0.13830975 -0.23657799 -0.26063803 -0.17235087 -0.097505614 -0.17752843 -0.14875849
-0.23935317 -0.017111013 -0.15419292 0.022554664 0.14966175 -0.05645176 0.034681097 -0.05007382
0.13967076 0.2288102 -0.013984965 -0.008651752 -0.09290203 0.0056278775 0.039988037 -0.29573172
-0.14790191 -0.18735999 0.109409004 0.09685264 -0.27464053 -0.061096497 -0.06977233 0.071204774
-0.029132033 -0.18746921 0.06759055 0.029265743 -0.23387447 -0.16810654 -0.05805483 -0.08682957
0.059153184 -0.16832702 -0.044740207 0.060883984 0.013038062 0.09881929 -0.37728605 -0.14614256
-0.06520794 -0.02233527 0.09563958 -0.38387662 -0.3239715 -0.15334167 -0.104313985 0.007830539
-0.0951705 -0.029106675 0.013599406 0.03714186 0.13572372 -0.11730963 -0.14290792 -0.124304205
-0.18662797 0.108354084 0.034394145 -0.056267526 -0.12431107 -0.038725894 0.053762414 -0.09737294
-0.3176018 -0.22615317 -0.1589645 -0.14084391 0.108835176 -0.14786437 -0.18457723 -0.1337029
-0.06515183 0.3659926 0.23601891 0.07716045 0.039378177 0.044969894 -0.10718652 -0.06382698
-0.23629454 -0.12810348 0.05901239 -0.084706165 0.045010906 0.016167343 0.009315912 0.05808202
-0.13097866 -0.03323092 -0.07456787 -0.016384952 -0.011547829 0.09455849 0.16191646 0.0046197353
0.07405626 0.033447314 0.022749983 -0.14692087 -0.020116525 0.036061004 -0.030286303 0.027380055
0.020102208 0.054981913 -0.01248862 0.05310363 0.062065545 0.1856074 0.20079368 0.13727947
0.15432447 0.02790246 0.11396322 -0.0039437427 0.06434986 -0.029181134 0.09906629 0.15267405
-0.022657104 -0.02408041 0.050535012 -0.078848355 -0.0602385 -0.09562083 -0.11644438 0.007498038
0.014232745 -0.38344398 -0.17721884 -0.24424313 -0.16962866 0.111546524 -0.11922633 0.029111968
-0.08888503 0.09377126 0.11347512 -0.10178873 -0.04027035 -0.12738541 -0.10398292 0.01276755
-0.047275078 0.03763822 -0.15989251 0.025034236 -0.09250263 -0.09777462 0.0690928 -0.05521971
-0.016122619 0.033304304 -0.10375567 0.100850284 0.037715666 0.095816165 -0.12883814 -0.40021816
-0.1815309 -0.18284827 -0.042359557 -0.111348785 -0.27741095 -0.049249455 0.02717757 0.15712558
-0.13304073 -0.21331005 -0.054548264 0.033037685 0.08317693 -0.1880725 -0.06226236 -0.0037330054
-0.0034848135 -0.0592053 0.20449506 -0.22581418 -0.28107876 0.13982034 -0.29979646 0.16069292
00000000: 5599 233e 2ecf bd3d 84cf 0b3e da42 b33d
00000010: 30d6 72be b0b3 f73c 0765 80bc 9fd5 843d
00000020: f9b5 253e 313d 1e3d 21ee e6bd ec2b a3bd
00000030: 66f6 17be 7bfa 3d3e 0055 123e cd34 aebc
00000040: 85d1 2c3d 73cb b03d b2b0 823e 182e cd3d
00000050: fcac 22bd 4593 043d c5e3 d2bc 2189 febb
00000060: b93e 003c c58a 883d de2a 603e 9ba1 4bbe
00000070: 2867 e3bd e0f2 83bb 7eed dcbd 45e2 2d3e
00000080: 0d32 be3d 441e 743e 8fd1 5f3e 048e bebe
00000090: 6503 f7bd 68cb a8bd e349 0a3a b2c5 34be
000000a0: b3c6 97be c7f0 3abe 16f7 203d e8ef d2bd
000000b0: 918e 8bbe 8a82 45bd dfe5 b2bc 36e6 613e
000000c0: 6285 043e 37e3 f9bd 2411 eabe 4de4 d0be
000000d0: 6928 f8be 47f1 26bf d60a a6be b985 c3bd
000000e0: 9afc b9bd c6af 333d acd6 00be 6067 e63a
000000f0: c569 6ebe ff61 35be 8860 a4be c0ec 84be
00000100: f449 3dbd 12a1 0dbe 8041 72be 5972 85be
00000110: bf7c 30be 06b1 c7bd 03ca 35be 2554 18be
00000120: ff18 75be 652c 8cbc c0e4 1dbe 8fc4 b83c
00000130: ee40 193e f639 67bd c40d 0e3d 351a 4dbd
00000140: da05 0f3e 394d 6a3e 3221 65bc 14c0 0dbc
00000150: 6b43 bebd 0f6a b83b 7fca 233d 266a 97be
00000160: 9973 17be 4cdb 3fbe d411 e03d ad5a c63d
00000170: af9d 8cbe 5240 7abd cce4 8ebd cfd3 913d
00000180: 4da6 eebc eef7 3fbe ea6c 8a3d b6be ef3c
00000190: ca7c 6fbe 1f24 2cbe e7ca 6dbd b4d3 b1bd
000001a0: 9c4a 723d eb5d 2cbe 8241 37bd 7c61 793d
000001b0: 989d 553c c561 ca3d a32b c1be 65a6 15be
000001c0: be8b 85bd 75f8 b6bc afde c33d 7a8b c4be
000001d0: 98df a5be 9905 1dbe 92a2 d5bd a94b 003c
000001e0: c0e8 c2bd 1f71 eebc 0bd0 5e3c 1022 183d
000001f0: 29fb 0a3e 0840 f0bd 7456 12be 3493 febd
00000200: 671b 3fbe bfe8 dd3d e0e0 0c3d c778 66bd
00000210: cd96 febd 0b9f 1ebd fa35 5c3d 776b c7bd
00000220: b49c a2be b294 67be 97c7 22be 6339 10be
00000230: fae4 de3d c269 17be d001 3dbe 6ae9 08be
00000240: 536e 85bd 6263 bb3e f1ae 713e 4c06 9e3d
00000250: 034b 213d 5a32 383d 9b84 dbbd b8b7 82bd
00000260: 32f7 71be 8f2d 03be fab6 713d 6d7a adbd
00000270: 5b5d 383d 6071 843c c4a1 183c 6ae7 6d3d
00000280: 451f 06be 251d 08bd 0ab7 98bd bc39 86bc
00000290: 1b33 3dbc e2a7 c13d 6ecd 253e 2661 973b
000002a0: cfaa 973d 0d00 093d 2c5e ba3c 6d72 16be
000002b0: 69cb a4bc b4b4 133d fb1a f8bc 234c e03c
000002c0: 63ad a43c b734 613d 129d 4cbc 3183 593d
000002d0: 7138 7e3d de0f 3e3e dc9c 4d3e fd92 0c3e
000002e0: 3c07 1e3e b393 e43c 8c65 e93d 833a 81bb
000002f0: dcc9 833d 460d efbc 44e3 ca3d 9656 1c3e
00000300: 649b b9bc 4844 c5bc cdfd 4e3d 3f7b a1bd
00000310: a5bc 76bd dbd4 c3bd 647a eebd 1ab2 f53b
00000320: 7630 693c c552 c4be db78 35be df1a 7abe
00000330: 23b3 2dbe 8172 e43d ef2c f4bd 397c ee3c
00000340: 5b09 b6bd 250b c03d a565 e83d 9c76 d0bd
00000350: 86f2 24bd 5271 02be fff4 d4bd fc2e 513c
00000360: 83a3 41bd 892a 1a3d ddba 23be 9914 cd3c
00000370: 0572 bdbd 0f3e c8bd 8780 8d3d 102e 62bd
00000380: 9513 84bc 186a 083d da7d d4bd 988a ce3d
00000390: be7b 1a3d 443b c43d 25ee 03be 65e9 ccbe
000003a0: 3ce3 39be 943c 3bbe 3781 2dbd d50a e4bd
000003b0: cf08 8ebe ccb9 49bd 7fa3 de3c 87e5 203e
000003c0: d43b 08be f36d 5abe 006e 5fbd 8652 073d
000003d0: ab58 aa3d 1496 40be d106 7fbd 70a5 74bb
000003e0: 7861 64bb 4281 72bd 2767 513e d53b 67be
000003f0: 8ee9 8fbe 102d 0f3e ec7e 99be af8c 243e

conv5.bias f4 [24]
-0.12204493 0.007533684 0.008747092 -0.10174342 0.054928668 -0.057630148 -0.078742996 0.014525105
0.010994413 0.06030154 -0.072154805 -0.036199898 -0.030069172 -0.057326812 -0.061474536 0.053809408
0.05088026 -0.16163637 -0.078044035 -0.09225144 0.0472387 -0.085789084 0.07151205 -0.027422475
00000000: b1f2 f9bd 1fdd f63b f74f 0f3c db5e d0bd
00000010: e2fc 603d 970d 6cbd 0244 a1bd b5fa 6d3c
00000020: e921 343c bffe 763d e6c5 93bd 5846 14bd
00000030: a053 f6bc 85cf 6abd b9cc 7bbd 4167 5c3d
00000040: d267 503d 0184 25be 8dd5 9fbd 53ee bcbd
00000050: 5e7d 413d 30b2 afbd e974 923d 19a5 e0bc

bn5.weight f4 [24]
0.44851786 0.51111686 0.49183106 0.39101768 0.55803317 0.46215066 0.55147505 0.4104415
0.5431007 0.4335327 0.43993714 0.47050437 0.5273266 0.46787092 0.44052684 0.51335406
0.47687262 0.45901376 0.46007746 0.42413065 0.48461905 0.43249527 0.39655277 0.51881975
00000000: 22a4 e53e 8ed8 023f 48d1 fb3e 7833 c83e
00000010: 43db 0e3f 039f ec3e 782d 0d3f 6325 d23e
00000020: a608 0b3f 00f8 dd3e 713f e13e f3e5 f03e
00000030: e0fe 063f c78c ef3e bc8c e13e 2c6b 033f
00000040: a628 f43e da03 eb3e 468f eb3e a727 d93e
00000050: fd1f f83e 0570 dd3e f708 cb3e 5fd1 043f

bn5.bias f4 [24]
-0.39540973 -0.36235294 -0.2718144 -0.36292556 -0.32231155 -0.3602822 -0.4654398 -0.27750096
-0.31814286 -0.26821515 -0.34543175 -0.3777465 -0.33241063 -0.37100863 -0.22741053 -0.2065448
-0.35331047 -0.46059778 -0.36634907 -0.49079013 -0.31587866 -0.4106945 -0.25379246 -0.3413452
00000000: 2573 cabe 5386 b9be 422b 8bbe 61d1 b9be
00000010: 0506 a5be e976 b8be 204e eebe 9b14 8ebe
00000020: 9fe3 a2be 7f53 89be 6edc b0be fd67 c1be
00000030: ba31 aabe d8f4 bdbe 4ede 68be 7b80 53be
00000040: 1ce5 b4be 79d3 ebbe 1b92 bbbe d848 fbbe
00000050: d9ba a1be 8d46 d2be 16f1 81be ccc4 aebe

bn5.running_mean f4 [24]
-5.106336 -3.829855 -1.2859157 -3.7732267 -1.4236009 -3.6374593 -3.8118773 -1.5459703
-1.9415025 -1.007679 -4.1034184 -1.7328159 -3.4872255 -4.5602465 -4.715654 -1.3682413
-1.7077069 -4.250017 -4.970009 -1.8494872 -0.91188073 -4.7578106 -0.3826567 -3.8164177
00000000: 1b67 a3c0 581c 75c0 e398 a4bf 8c7c 71c0
00000010: 8e38 b6bf 22cc 68c0 ccf5 73c0 5be2 c5bf
00000020: 2783 f8bf a0fb 80bf 344f 83c0 e9cc ddbf
00000030: b42e 5fc0 8aed 91c0 a3e6 96c0 8822 afbf
00000040: 2496 dabf 2400 88c0 500a 9fc0 ffbb ecbf
00000050: 0471 69bf fc3f 98c0 94eb c3be 3040 74c0

bn5.running_var f4 [24]
7.2261014 6.126466 6.4048667 4.1124477 7.895628 8.401548 6.7176366 5.4094877
5.5873537 8.118542 8.084305 4.9583635 9.958688 5.8213763 9.734263 5.4852543
5.8420563 6.4681625 8.105418 8.685953 4.9575467 7.8428187 4.4634333 10.238103
00000000: 393c e740 020c c440 abf4 cc40 2c99 8340
00000010: fca8 fc40 be6c 0641 e1f6 d640 861a ad40
00000020: 9acb b240 8ce5 0141 5059 0141 eaaa 9e40
00000030: c956 1f41 b748 ba40 8bbf 1b41 3487 af40
00000040: 20f2 ba40 30fb ce40 cbaf 0141 aaf9 0a41
00000050: 39a4 9e40 5ff8 fa40 72d4 8e40 45cf 2341

fc1.weight f4 [10, 2400]
-0.5945414 -0.3119958 -0.22640228 -0.30053782 -0.3264743 -0.1733709 -0.017163226 -0.054838467
-0.18388876 -0.31294742 -0.28517237 -0.03332514 -0.12736383 -0.09404787 0.097765654 0.19339405
0.105932325 0.1358894 -0.069336094 -0.21789898 -0.28173074 -0.08188449 -0.13729517 -0.25712347
-0.2460548 -0.026644742 -0.11105155 -0.015163506 -0.019962985 -0.06303123 -0.25105888 -0.073163554
-0.039435927 -0.07108828 -0.22611855 -0.19800617 -0.34262013 -0.16648073 -0.1457898 -0.21324316
-0.35355023 -0.24057639 -0.068636194 -0.04324914 0.010678977 -0.05621147 -0.044264637 -0.051509526
-0.07970652 -0.32637244 -0.28084803 -0.071685374 0.00019718692 -0.009749965 -0.16573454 -0.07760022
-0.07961198 -0.1815887 -0.36801344 -0.4474054 -0.0962819 -0.06903129 0.017215336 0.022483235
-0.05874692 0.012037024 -0.10489535 -0.14771415 -0.0186718 -0.14332362 -0.0021095881 -0.06957378
-0.052661706 -0.019391455 -0.07864448 0.14327271 -0.016083395 0.026887601 -0.1171871 0.013936711
0.012424495 -0.18275768 -0.1286323 0.121969074 0.0075390995 0.023736052 -0.0019252165 -0.043115303
-0.047347274 0.059001636 0.005573662 -0.07168204 -0.16238858 0.033529002 -0.030731995 0.09627377
0.015602892 0.022780403 -0.020462597 -0.11429389 -0.09605943 -0.14417252 -0.04652769 -0.019752463
0.035102718 -0.0029964086 -0.0410179 -0.25729394 -0.2324894 -0.07633799 -0.23101003 -0.059140764
-0.09035633 -0.08104905 0.0697508 0.046347868 -0.14955701 -0.05114444 -0.063372 0.045101944
-0.17160961 -0.17958091 -0.007956322 -0.17864689 -0.05765807 0.07905556 -0.1041569 -0.022113407
-0.07914524 -0.08828075 -0.08410093 -0.23864888 -0.16436985 -0.15732579 -0.029510254 -0.04252989
-0.19178563 -0.1683959 -0.010725325 -0.05400485 -0.061019186 -0.26683787 -0.0011992062 -0.09587586
-0.09984754 -0.01038744 0.050274648 0.008118647 -0.04881875 -0.049232733 0.053213477 -0.002891241
-0.01749226 0.017664596 0.12763642 0.09990091 0.21248892 0.0022011693 -0.092152834 0.009972867
0.14798732 0.038246907 -0.04563459 -0.058408633 0.017865442 0.087347426 0.0054162596 0.10210696
0.067027085 -0.037724007 -0.09793749 -0.02883246 0.033882882 0.04840414 0.2369004 0.27149302
0.098460846 0.07340767 -0.07005703 -0.1571278 -0.09446767 -0.19486283 -0.07317038 0.12268749
0.35855433 0.10846708 -0.09756351 -0.058184132 -0.057513285 -0.1115437 -0.080199905 -0.04076835
0.0067588533 0.06572717 0.311766 0.21283299 0.022336014 -0.047355812 0.021087766 -0.040549427
0.051648356 0.038747482 0.12173874 0.27013573 0.08479216 0.084729955 0.19969691 -0.17304887
-0.017472837 -0.051771946 -0.054782916 -0.0930769 0.009476934 0.047045328 -0.021211624 -0.041706912
0.0044020223 -0.18285167 -0.09553346 -0.2904735 0.054782446 0.11358788 0.1238503 -0.010015467
0.07942248 -0.017540729 0.019669568 -0.07297624 0.028925775 -0.17693135 0.08178606 0.059296526
-0.024620023 -0.012872634 0.045232225 0.08547429 -0.10833919 -0.08561941 0.024468513 -0.26046833
0.16683847 0.09694141 -0.0670256 0.0060333475 0.036366478 -0.09245389 -0.15952745 -0.07064597
0.1708307 -0.09998737 0.039514937 -0.019740732 -0.08709989 0.0038737268 -0.18084934 -0.08591734
00000000: dd33 18bf eabd 9fbe 00d6 67be 18e0 99be
00000010: a427 a7be 2488 31be e599 8cbc 4d9e 60bd
00000020: 564d 3cbe a53a a0be 1d02 92be f17f 08bd
00000030: aa6b 02be 2b9c c0bd 5c39 c83d 1709 463e
00000040: 0cf3 d83d 9726 0b3e 1500 8ebd e920 5fbe
00000050: 033f 90be 0eb3 a7bd 1b97 0cbe b0a5 83be
00000060: caf5 7bbe 1346 dabc ff6e e3bd 5b70 78bc
00000070: 6a89 a3bc 8416 81bd ca8a 80be c6d6 95bd
00000080: 9187 21bd bb96 91bd 9f8b 67be 21c2 4abe
00000090: e86b afbe ed79 2abe ec49 15be 6a5c 5abe
000000a0: 8904 b5be a859 76be 2291 8cbd 0326 31bd
000000b0: e0f6 2e3c 003e 66bd d64e 35bd a7fb 52bd
000000c0: 2c3d a3bd 4a1a a7be 50cb 8fbe c8cf 92bd
000000d0: f6c3 4e39 51be 1fbc 51b6 29be ddec 9ebd
000000e0: 9b0b a3bd 63f2 39be 426c bcbe 5212 e5be
000000f0: 722f c5bd 4760 8dbd 2d07 8d3c c32e b83c
00000100: 9ca0 70bd f036 453c 60d3 d6bd 6142 17be
00000110: 9af5 98bc 6dc3 12be 0441 0abb b37c 8ebd
00000120: cdb3 57bd d4da 9ebc 5b10 a1bd 15b6 123e
00000130: 53c1 83bc 6343 dc3c caff efbd cd56 643c
00000140: 1c90 4b3c d424 3bbe 30b8 03be ecca f93d
00000150: 8d0a f73b 1c72 c23c 8c57 fcba ac99 30bd
00000160: 37ef 41bd b3ab 713d 44a3 b63b 09ce 92bd
00000170: 3149 26be b555 093d aac1 fbbc 2f2b c53d
00000180: 46a3 7f3c f89d ba3c 2da1 a7bc ea12 eabd
00000190: ceba c4bd f6a1 13be d293 3ebd ebcf a1bc
000001a0: dec7 0f3d 655f 44bb 6302 28bd 08bc 83be
000001b0: b411 6ebe 1857 9cbd e58d 6cbe 963d 72bd
000001c0: bd0c b9bd 0bfd a5bd 82d9 8e3d 43d7 3d3d
000001d0: 7925 19be d57c 51bd 2ec9 81bd d1bc 383d
000001e0: 6eba 2fbe 0fe4 37be 3c5b 02bc 36ef 36be
000001f0: de2a 6cbd e2e7 a13d 3650 d5bd 2d27 b5bc
00000200: e616 a2bd 8acc b4bd 1c3d acbd 5f60 74be
00000210: 9250 28be 031a 21be 7dbf f1bc d233 2ebd
00000220: 7463 44be fa6f 2cbe 46b9 2fbc 3134 5dbd
00000230: 41ef 79bd f99e 88be af2e 9dba 905a c4bd
00000240: de7c ccbd 1530 2abc caec 4d3d 1304 053c
00000250: 2bf6 47bd 43a8 49bd 60f6 593d fa7a 3dbb
00000260: ee4b 8fbc 58b5 903c 1fb3 023e d998 cc3d
00000270: b296 593e 7e41 103b a0ba bcbd 3c65 233c
00000280: fd89 173e caa8 1c3d 56eb 3abd e43d 6fbd
00000290: 8c5a 923c 35e3 b23d e17a b13b 741d d13d
000002a0: 7f45 893d 7d84 1abd 7393 c8bd 0d32 ecbc
000002b0: c7c8 0a3d 6b43 463d 0596 723e 2201 8b3e
000002c0: d7a5 c93d c356 963d 0f7a 8fbd 1ce6 20be
000002d0: 4478 c1bd 1f8a 47be 5ada 95bd 9443 fb3d
000002e0: 6f94 b73e fd23 de3d 61cf c7bd 7c52 6ebd
000002f0: 0d93 6bbd 0671 e4bd d93f a4bd b7fc 26bd
00000300: 5f79 dd3b f79b 863d cb9f 9f3e e4f0 593e
00000310: 04fa b63c 2bf8 41bd 40c0 ac3c 2817 26bd
00000320: 3a8d 533d aeb5 1e3d 2952 f93d 3b4f 8a3e
00000330: 83a7 ad3d e686 ad3d 597d 4c3e b933 31be
00000340: 3223 8fbc d20e 54bd 0d64 60bd 1a9f bebd
00000350: 2445 1b3c 9ab2 403d 00c4 adbc ded4 2abd
00000360: d73e 903b 783d 3bbe 0ca7 c3bd f1b8 94be
00000370: 8f63 603d c3a0 e83d 3aa5 fd3d ea17 24bc
00000380: 41a8 a23d 93b1 8fbc 1322 a13c 9174 95bd
00000390: bff5 ec3c 7e2d 35be 737f a73d eae0 723d
000003a0: eeaf c9bc bee7 52bc 6d45 393d 250d af3d
000003b0: f0e0 ddbd 3b59 afbd 3172 c83c 1b5c 85be
000003c0: b4d7 2a3e 3889 c63d b844 89bd 63b3 c53b
000003d0: 04f5 143d 7758 bdbd 2a5b 23be d6ae 90bd
000003e0: 3eee 2e3e 2ec6 ccbd 6ada 213d 51b7 a1bc
000003f0: 6d61 b2bd 5ade 7d3b 9230 39be 6ef5 afbd

fc1.bias f4 [10]
0.044669826 -0.08125199 -0.055866145 0.17083539 0.14289017 0.055683967 -0.11570282 -0.10821533
0.022038894 -0.18169
00000000: b5f7 363d 7167 a6bd e6d3 64bd 79ef 2e3e
00000010: cd51 123e df14 643d 9af5 ecbd 00a0 ddbd
00000020: e98a b43c f20c 3abe
