Samples/Tutorial Samples/PyTorch Data Analysis/Windows ML code - Data Analysis/Iris Data Analysis/Assets/Regression.onnx (onnx, 3785 bytes, 6 tensors)

layer1.bias f4 [24]
0	0xbdd5e428	-0.10443908
1	0x3d884530	0.066538215
2	0xbf3a0ef6	-0.7267908
3	0xbe528a31	-0.20560528
4	0xbe4d64f9	-0.2005805
5	0x3f05f142	0.52321255
6	0x3f3a75a6	0.7283577
7	0xbea3cf53	-0.31994113
8	0xbe8f8539	-0.28031328
9	0xbbc32688	-0.005955521
10	0x3f2eec5f	0.68329424
11	0x3f00f0b9	0.50367314
12	0xbe8c5f61	-0.27416518
13	0x3f15a2cc	0.58451533
14	0xbe7705f8	-0.2412337
15	0x3e0f5484	0.13997084
16	0xbe1a448c	-0.15065211
17	0xbe4f74d4	-0.2025941
18	0xbe95d7e2	-0.29266268
19	0xbf066771	-0.5250159
20	0x3ea1c14b	0.31592783
21	0x3e9c4dca	0.30528098
22	0xbf083eb2	-0.53220665
23	0xbec3ce61	-0.38243392

layer1.weight f4 [24, 4]
0	0x3db13ce8	0.08654195
1	0xbe2498f0	-0.16073966
2	0xbed68a8c	-0.41902578
3	0x3e64ee10	0.22356439
4	0x3eb1c0a8	0.34717298
5	0x3f02fe0d	0.511689
6	0xbb96e3cc	-0.004604792
7	0xbe0c17a6	-0.13680896
8	0x3e04ec26	0.12980708
9	0xbc213265	-0.009838675
10	0x3ef5dc56	0.48019665
11	0x3e55c367	0.20875321
12	0x3e5c5e01	0.21520235
13	0xbf27f45f	-0.65607256
14	0x3f2d1c63	0.6762144
15	0x3dabd1e4	0.08389643
16	0xbcc18042	-0.023620728
17	0x3f085489	0.5325399
18	0xbba6610f	-0.0050774883
19	0xbee818f0	-0.45331526
20	0x3f042f2d	0.51634485
21	0x3ec2f835	0.38079992
22	0x3cba4ac3	0.022740727
23	0xbf54a924	-0.8307059
24	0xbda09ef4	-0.07842818
25	0x3f23ce64	0.639868
26	0xbe87c3ef	-0.26516673
27	0xbe4eaef5	-0.20183928
28	0xbe613a68	-0.21994936
29	0x3d69c98c	0.057076976
30	0x3e744601	0.2385483
31	0x3ec1441c	0.37747276
32	0x3ee3dba3	0.44503507
33	0xbf29b2c2	-0.6628839
34	0x3e421096	0.1895164
35	0x3bdd118f	0.006746478
36	0xbe9586cd	-0.29204407
37	0xbc271056	-0.010196766
38	0x3f1746f3	0.59092635
39	0x3cda7c37	0.026670558
40	0xbdbecadc	-0.09316036
41	0x3f2ff553	0.6873371
42	0xbd47deed	-0.048796583
43	0xbf5131c4	-0.8171656
44	0xbdb9e431	-0.09076727
45	0x3f38a238	0.72122526
46	0xbde5dfba	-0.11224313
47	0xbf1e906f	-0.6193914
48	0x3eb7f30a	0.35927612
49	0x3e9bfae2	0.30464846
50	0x3d86103c	0.06546065
51	0x3ddc569c	0.10758707
52	0x3ef7323f	0.48280522
53	0xbcd9be58	-0.02658002
54	0xbec412b8	-0.3829553
55	0xbe9a4606	-0.3013155
56	0xbec74a54	-0.38923895
57	0xbec6afc8	-0.38805985
58	0xbec8dffa	-0.3923338
59	0x3e8c220c	0.27369726
60	0xbeaef606	-0.34172076
61	0x3dd680d8	0.10473794
62	0xbe5972c4	-0.21235186
63	0xbef027ea	-0.46905452
64	0xbe91a09c	-0.28442848
65	0x3e5a1c24	0.21299797
66	0xbee87d30	-0.4540801
67	0xbedd1ab2	-0.4318443
68	0xbd24cbd0	-0.040233433
69	0xbe426a1c	-0.1898579
70	0xbea9f28a	-0.33192855
71	0xbe524e00	-0.20537567
72	0xbdbd7958	-0.0925166
73	0xbeda4da6	-0.42637366
74	0xbee46408	-0.44607568
75	0xbe85f932	-0.26166683
76	0xbe2eb74a	-0.17062107
77	0x3e65eb7a	0.22453108
78	0xbe046cad	-0.12932082
79	0x3e92715f	0.2860212
80	0xbeba0884	-0.36334622
81	0x3e805ab1	0.25069192
82	0xbd377fbb	-0.044799548
83	0x3f0e1f57	0.5551657
84	0xbee50468	-0.44729924
85	0xbe164be4	-0.14677387
86	0xbdc03dc0	-0.09386778
87	0xbe7d8b58	-0.24760187
88	0xbea8fe8b	-0.330067
89	0x3e729854	0.23690921
90	0x3f1dad08	0.6159215
91	0x3f6d8488	0.9278035
92	0xbd8742e1	-0.06604553
93	0x3bf1c04a	0.007377659
94	0x3ef5681a	0.47930986
95	0x3f62e112	0.8862468

layer2.bias f4 [24]
0	0xbe94e534	-0.29081118
1	0x3eb75b9d	0.35812083
2	0xbdc9d4ff	-0.09855079
3	0xbe10504a	-0.14093128
4	0xbd146db8	-0.03623745
5	0x3e0fc020	0.14038134
6	0x3e8f2fe8	0.27966237
7	0x3e1276d4	0.14303142
8	0xbd4653dd	-0.048419822
9	0x3dcd8f0e	0.10037051
10	0x3e20560f	0.15657829
11	0x3da50e31	0.080593474
12	0xbce56c94	-0.028005876
13	0xbc370a40	-0.011171877
14	0x3ddd4ef8	0.10806078
15	0xbc7fb72b	-0.0156076355
16	0x3e24d984	0.160986
17	0xbe8b9fc0	-0.27270317
18	0xbb9f62da	-0.004864079
19	0xbd7e6f0c	-0.06211762
20	0x3dbe039e	0.09278034
21	0x3e8a442c	0.27005136
22	0xbe509e70	-0.20372939
23	0x3ddd89eb	0.108173214

layer2.weight f4 [24, 24]
0	0xbd6bd178	-0.05757281
1	0x3d064a65	0.032785792
2	0x3ded7002	0.115936294
3	0x3dbe4d33	0.09292068
4	0xbdb91ff5	-0.090392984
5	0xbd2f8575	-0.042851884
6	0xbead82df	-0.3388891
7	0x3e84f589	0.25968578
8	0x3e043108	0.12909329
9	0x3d8bfa07	0.06834798
10	0xbf1ef132	-0.62086785
11	0xbee267e1	-0.44219878
12	0x3d3fe309	0.046847377
13	0xbe98f4b1	-0.29874185
14	0x3dfb7880	0.12278843
15	0x3d648b58	0.05579695
16	0xbdad23f7	-0.084541254
17	0xbd66f1c0	-0.056382895
18	0x3c60ac60	0.013712972
19	0x3de06972	0.10957612
20	0xbddfaa12	-0.1092111
21	0x3df0ea14	0.11763397
22	0x3ed140ea	0.40869838
23	0x3ed66f22	0.41881663
24	0x3d6902e8	0.056887537
25	0x3e27a59c	0.16371769
26	0xbd13986c	-0.036034033
27	0xbe9750f0	-0.29553938
28	0x3e42a42a	0.19007936
29	0x3e876ab5	0.26448599
30	0x3f1ddc4e	0.61664283
31	0xbe010213	-0.12598448
32	0x3d9d19df	0.0767095
33	0xbe312880	-0.17300606
34	0x3f025dc7	0.5092434
35	0x3f28075c	0.6563623
36	0x3dfe28dd	0.12410138
37	0x3e98ecae	0.29868072
38	0x3e2c1330	0.16804194
39	0x3d1a8200	0.037721634
40	0xbd3aaa74	-0.045572713
41	0xbcc96d08	-0.024588123
42	0x3bc0e900	0.0058871508
43	0xbdb028e8	-0.08601552
44	0xbe5e7ea8	-0.21728003
45	0x3e27015e	0.16309115
46	0xbee09630	-0.43864584
47	0xbe12f7ac	-0.14352292
48	0xbd014b94	-0.031566218
49	0xbe8cff85	-0.27538696
50	0x3bfeb3c9	0.007772897
51	0xbc4f171e	-0.012639789
52	0x3ceb2eb8	0.0287088
53	0xbe5a6666	-0.21328124
54	0xbd6ccb63	-0.057811152
55	0xbe8c4512	-0.27396446
56	0xbd9d3f58	-0.076780975
57	0xbe27a388	-0.16370976
58	0xbe29c41f	-0.1657872
59	0xbdd9dc1f	-0.10637688
60	0x3d39cc76	0.045361005
61	0xbd36cbb8	-0.044627875
62	0xbe31bb43	-0.17356591
63	0x3dabcf50	0.08389151
64	0xbde9aaed	-0.11409555
65	0x3e1edb64	0.15513378
66	0xbe2c2299	-0.16810073
67	0x3e40d4a4	0.18831116
68	0x3e0f6ad6	0.14005598
69	0x3de65bd8	0.112479866
70	0xbe321dfe	-0.17394254
71	0x3dd8f1f4	0.10593024
72	0xbcf003a8	-0.029298618
73	0xbc97cee9	-0.01853128
74	0xbe8fe4ef	-0.2810435
75	0xbed39fa3	-0.4133273
76	0x3e77f18b	0.24213235
77	0x3e09c150	0.13452649
78	0x3e52e714	0.20595962
79	0xbe2c32d7	-0.16816269
80	0xbdc5dd87	-0.096613936
81	0xbe821a84	-0.25410855
82	0xbd5af560	-0.053456664
83	0x3dbadc4c	0.091240495
84	0xbd0aa9e3	-0.033853423
85	0x3e232626	0.15932521
86	0x3d86a00c	0.06573495
87	0xbd6c4688	-0.05768445
88	0x3d925520	0.071451426
89	0x3d39b88c	0.045342013
90	0x3b0d2180	0.002153486
91	0x3d1819f0	0.03713411
92	0x3c072530	0.008248612
93	0x3e17365a	0.14766827
94	0xbd87641d	-0.06610892
95	0xbebb5681	-0.36589435
96	0x3d2f6848	0.04282406
97	0xbdc8066b	-0.09766849
98	0xbe278de7	-0.16362725
99	0x3d1fe210	0.03903395
100	0xbe2e0de8	-0.16997492
101	0xbe153757	-0.14571892
102	0xbe1e8260	-0.15479422
103	0x3d2e4ef0	0.04255575
104	0xbde657f6	-0.11247246
105	0x3d31ff34	0.04345627
106	0x3dfc6520	0.123239756
107	0xbe1e2033	-0.1544197
108	0x3da08f64	0.078398496
109	0x3d51ad00	0.051190376
110	0x3cbef400	0.023309708
111	0x3dc569fc	0.096393555
112	0xbe450d4f	-0.19243358
113	0xbda343f0	-0.079719424
114	0x3ba4a760	0.0050248355
115	0xbe0fc03e	-0.14038178
116	0x3dffd984	0.1249266
117	0x3d8b227c	0.06793687
118	0xbd3ee098	-0.046600908
119	0xbe2b24b8	-0.16713226
120	0xbe0ae4fe	-0.13563916
121	0xbc63ec09	-0.013911256
122	0xbdc6aaf0	-0.097005725
123	0xbed3b4bd	-0.4134883
124	0x3e865cf8	0.26242805
125	0xbc5105ad	-0.012757701
126	0x3e6ea2a7	0.23304234
127	0x3d166c6a	0.036724485
128	0xbdf7621a	-0.12079258
129	0xbe903f7a	-0.2817343
130	0x3ee0b4ef	0.4388804
131	0x3ecc914e	0.3995461
132	0x3e0f0523	0.13966803
133	0xbcc1b888	-0.023647562
134	0x3d57dbf8	0.052700013
135	0xbd988db8	-0.07448906
136	0x3e2db91e	0.16965148
137	0x3dfbc40c	0.12293252
138	0xbd1de4bc	-0.038548216
139	0x3d98216c	0.0742825
140	0xbe3741f0	-0.17896247
141	0xbe30f5d7	-0.1728128
142	0xbdbfed41	-0.093714245
143	0x3ceea8b3	0.029133176
144	0xbd278af8	-0.040904015
145	0x3e0ae13e	0.13562486
146	0xbe2fcc58	-0.17167795
147	0xbe1f5a10	-0.155617
148	0x3e6c8a7f	0.23099707
149	0x3e901eff	0.28148648
150	0x3f079025	0.5295432
151	0xbeca035c	-0.39455688
152	0x3d445a07	0.04793742
153	0x3a9cccab	0.0011962851
154	0x3f08674d	0.53282624
155	0x3ee3e0a5	0.44507328
156	0x3c966ab3	0.018361425
157	0x3ec41c3a	0.38302785
158	0xbd94e5a8	-0.07270366
159	0x3e24f986	0.1611081
160	0x3e0ca888	0.13736165
161	0xbce3f608	-0.027827278
162	0xbc9c04b8	-0.019045219
163	0x3e5302e9	0.20606579
164	0xbe176361	-0.14784004
165	0xbc9af8d8	-0.018917486
166	0xbea54713	-0.32280788
167	0xbdb34175	-0.08752719
168	0x3e25d7f2	0.16195658
169	0x3ce5162c	0.027964674
170	0x3d9dbf68	0.077025235
171	0xbe6efe3d	-0.23339172
172	0x3e363601	0.17794038
173	0x3e8bc72d	0.27300397
174	0x3e898c2f	0.26864764
175	0xbe9bdf4b	-0.30443797
176	0xbd0367cd	-0.032081414
177	0xbe2cb2ed	-0.1686513
178	0x3f33ee89	0.7028585
179	0x3f281e21	0.65670973
180	0xbd1d4d18	-0.0384036
181	0xbc39a13e	-0.011329947
182	0x3e24974e	0.16073343
183	0xbe3168b6	-0.173251
184	0x3db34e70	0.08755195
185	0xbe2ddf50	-0.16979718
186	0xbe34bb58	-0.17649591
187	0xbd326ba6	-0.043559693
188	0x3dd50490	0.10401261
189	0xb9987c00	-0.00029084086
190	0xbe81f12e	-0.25379318
191	0x3ba77952	0.005110898
192	0xbe2f437f	-0.17115591
193	0xbe5f0ff4	-0.2178343
194	0xbe70f731	-0.23531796
195	0xbe165c19	-0.1468357
196	0x3ddb640d	0.107124425
197	0x3dca6a34	0.09883538
198	0xbd160796	-0.03662833
199	0x3dca05ee	0.09864412
200	0x3dfacfa7	0.12246638
201	0xbe6922d7	-0.22767197
202	0x3d90b0f9	0.07065005
203	0x3d46b377	0.048510995
204	0xbd099a63	-0.0335945
205	0xbdaa744d	-0.08322964
206	0xbd707584	-0.05870582
207	0xbc8ad2c8	-0.016946211
208	0x3e393efc	0.18090433
209	0xbd741e10	-0.059598982
210	0x3d24bca4	0.040218964
211	0xbd828c72	-0.06374444
212	0xbd58ea24	-0.05295767
213	0x3df271ac	0.118380874
214	0xbe26fa8a	-0.1630651
215	0xbd7bfe5b	-0.06152187
216	0x3e26b740	0.16280842
217	0x3ba5fbd6	0.0050654216
218	0xbe1b7ff6	-0.15185532
219	0xbd07fe4f	-0.033201512
220	0xbe250251	-0.16114165
221	0xbd6cb234	-0.057787135
222	0x3d8fc6e9	0.07020361
223	0x3d6c2389	0.057651076
224	0xbe027317	-0.12739216
225	0x3df243e8	0.11829358
226	0xbd6d5132	-0.057938762
227	0x3e785912	0.24252728
228	0xbc1792d1	-0.009251312
229	0xbce315c5	-0.027720341
230	0x3ca3a2b8	0.019975051
231	0x3e1d395c	0.15353912
232	0xbe17575d	-0.1477942
233	0xbd4b9a90	-0.04970795
234	0x3e203f42	0.15649131
235	0x3e064365	0.13111646
236	0xbdd4ffef	-0.10400378
237	0xbe40031e	-0.18751189
238	0xbe8265bf	-0.2546825
239	0xbdd1c555	-0.10242716
240	0xbdadc4a6	-0.08484773
241	0x3e12e80b	0.1434633
242	0x3cb6e529	0.022326069
243	0x3e91e483	0.28494653
244	0x3df3a0b9	0.1189589
245	0xbdc97e2c	-0.098385185
246	0xbe17ca86	-0.1482335
247	0xbdd632ec	-0.10458931
248	0x3e9d2fdc	0.30700576
249	0x3ea22fad	0.31677
250	0xbe6c56bb	-0.2307996
251	0xbe375d0f	-0.17906593
252	0x3e1e4cd8	0.15459001
253	0x3e63c010	0.22241235
254	0xbc41d070	-0.0118294805
255	0xbe470be4	-0.1943813

layer3.bias f4 [3]
0	0x3df57278	0.11984724
1	0x3e733b86	0.23753175
2	0xbe3d7063	-0.18499903

layer3.weight f4 [3, 24]
0	0xbec2b33e	-0.38027376
1	0x3efe7463	0.4969817
2	0x3df1bb7a	0.118033364
3	0x3eafdfe7	0.3435051
4	0x3e34e302	0.17664722
5	0x3ea05222	0.31312662
6	0x3e3d5eac	0.18493146
7	0x3e442c7d	0.19157596
8	0xbd6ddc33	-0.058071326
9	0x3ce7245a	0.028215576
10	0xbf149171	-0.58034426
11	0x3d52cd49	0.051465306
12	0xbf13ad5e	-0.5768641
13	0xbdfcdb85	-0.123465575
14	0xbe40e087	-0.1883565
15	0x3eea4426	0.45755118
16	0xbbc4a8c0	-0.006001562
17	0xbedc156e	-0.429851
18	0x3e9389d8	0.28816104
19	0x3e1f7978	0.1557368
20	0xbd523597	-0.05132064
21	0x3eeb9107	0.46009085
22	0x3c4620d2	0.012092786
23	0xbf0cf310	-0.55058384
24	0xbc83ec09	-0.016103761
25	0x3e894503	0.26810464
26	0xbe04a153	-0.12952165
27	0xbee4abfb	-0.4466246
28	0xbe043e3e	-0.12914369
29	0xbd8adef8	-0.06780809
30	0x3e4adad4	0.19810039
31	0x3d541751	0.05178005
32	0xbe2e4edd	-0.17022271
33	0x3d03ff4a	0.032225884
34	0x3e363854	0.17794925
35	0x3dc5829c	0.096440524
36	0x3e4db00e	0.20086691
37	0x3d04f820	0.032463193
38	0x3ddf9e30	0.10918844
39	0xbf4bbe5c	-0.7958734
40	0xbe48cd36	-0.19609532
41	0xb9d29adc	-0.000401697
42	0x3e3a1a97	0.18174206
43	0x3dd60c08	0.104515135
44	0xbd2ba681	-0.041906837
45	0x3e9ee06d	0.31030598
46	0xbdd20496	-0.10254781
47	0x3d8ea5bc	0.06965205
48	0x3eeee8f1	0.46662095
49	0xbed4e1b0	-0.41578436
50	0x3e55273e	0.20815751
51	0xbcfb641d	-0.030687386
52	0xbd059118	-0.032609075
53	0xbded9834	-0.11601296
54	0xbec5e97c	-0.38654697
55	0xbec55702	-0.38542944
56	0xbd9a32be	-0.075292096
57	0xbd5835cc	-0.05278568
58	0x3e485ac5	0.19565876
59	0x3d10a086	0.035309337
60	0x3e8fc3de	0.28079122
61	0x3dd77ea4	0.10522202
62	0x3db30d04	0.08742717
63	0xbe55afa8	-0.20867789
64	0x3dfa7c64	0.12230757
65	0x3e9eb1cc	0.30995023
66	0xbf0ac268	-0.5420289
67	0x3de8f420	0.11374688
68	0x3df1e654	0.1181151
69	0xbf4ef90c	-0.80848765
70	0xbe051130	-0.12994838
71	0x3ead7563	0.3387862
