Samples/Tutorial Samples/PyTorch Data Analysis/PyTorch Training - Data Analysis/NetModel.pth (torch, 5407 bytes, 6 tensors)

layer1.weight f4 [24, 4]
000000 50 99 ee be 30 dd 91 3e 04 79 a9 be 28 54 9d 3e
       -0.46601343 0.28489065 -0.3310014 0.3072827
000010 50 24 ea be 80 3e b0 3b 60 e2 fe be 38 5c 3a 3e
       -0.4573083 0.0053785443 -0.49782085 0.18199241
000020 00 f3 ce bc 00 b0 fe 3b c8 4c fd be 8e a4 86 3e
       -0.025262356 0.0077724457 -0.49472642 0.2629742
000030 e7 af 3c 3e fb 81 92 be e9 b1 e3 3e 91 ee 2f 3e
       0.18426476 -0.28614792 0.44471672 0.1718085
000040 34 e9 86 3e fd 5e aa 3e 4f 26 77 be 20 75 24 bf
       0.26349795 0.33275595 -0.24135707 -0.6424122
000050 e6 91 86 be 00 e0 a3 bd 80 f6 ca 3d 5e 7f e2 3e
       -0.26283187 -0.08001709 0.099102974 0.44237798
000060 5d 7b e4 3e a1 6c 2b be b6 7f bd bd 67 d4 1a 3e
       0.4462537 -0.16740657 -0.092528746 0.15120088
000070 1c 76 03 be c8 01 e7 3d c0 98 08 3c 80 13 2c bc
       -0.12838024 0.112796366 0.0083372 -0.010502696
000080 c4 cd 0e 3f b4 ab f0 bd db af 05 be be b9 17 3d
       0.55782723 -0.117515 -0.13055365 0.037042372
000090 3d 52 a5 3e d4 fe 82 3e f7 c0 d6 be 29 c5 3f 3e
       0.32289305 0.25585043 -0.41944095 0.18727554
0000a0 9c aa 21 be 60 87 07 bd 2e cc bf be da f1 88 be
       -0.15787739 -0.033088088 -0.37460464 -0.26747018
0000b0 9e ba 06 3f 5c 68 0a 3e 6d 79 a9 bd d9 5a fe be
       0.52628505 0.13516372 -0.08275113 -0.49678686
0000c0 d6 05 a5 be 98 b4 28 3e d8 1b 81 3d 8e 1b a2 3e
       -0.32231015 0.16475141 0.06304139 0.31661648
0000d0 bc 56 16 be 20 e8 d4 3d 80 04 4d bc 00 29 49 bd
       -0.14681524 0.10395837 -0.01251328 -0.049111366
0000e0 cb 8c 83 3e cc b2 3c 3f c9 68 fe be ed e0 ca be
       0.25693354 0.7371032 -0.4968932 -0.3962473
0000f0 28 4d b3 3e 03 bd c2 3d e4 c9 07 3f 4f 92 ae 3e
       0.35019803 0.095087074 0.53042436 0.34096
000100 f0 a6 9e 3d ec 32 c5 be c8 c1 89 3d 08 68 fb be
       0.077466846 -0.38515413 0.06726414 -0.49102807
000110 02 e4 92 3c 0f 1a 06 bd 74 01 d6 3e bf 87 99 3e
       0.017930988 -0.032739695 0.41797984 0.2998638
000120 62 44 ea be 48 f4 3e be d8 07 2b be 00 37 ba 3e
       -0.45755297 -0.18647873 -0.16702211 0.36370087
000130 18 83 85 bd 68 30 87 3d c0 5e 62 be 68 4c 00 3e
       -0.06519145 0.0660103 -0.22106457 0.12529147
000140 f6 a2 ce 3e fb d3 ab be 24 19 8a 3e aa 33 01 3f
       0.40358704 -0.33560166 0.26972306 0.5046946
000150 7c 72 b8 3e 22 c6 ba 3e e5 72 0e bf 18 b8 10 be
       0.36024845 0.36479288 -0.55644065 -0.14132726
000160 a8 8e f3 3d d4 4e d4 be 76 59 c8 be 02 04 b9 be
       0.11892444 -0.4146639 -0.39130753 -0.3613587
000170 6a 71 ff be 44 65 36 be 7c 4a d5 3e d0 18 46 3e
       -0.49891216 -0.17812067 0.4165839 0.19345403

layer1.bias f4 [24]
000000 e8 2f d4 bd 94 8f 10 3e bc b7 e7 3e da 99 5c 3e
       -0.103607 0.1411727 0.45257366 0.21543065
000010 a5 e2 60 3e e4 25 27 be 91 25 b4 bd 20 53 c2 3c
       0.21961458 -0.16323048 -0.08796228 0.023721278
000020 a0 a9 22 3f 78 bf af bd c4 4a d9 be 78 ae b7 3e
       0.6354008 -0.08581442 -0.42439854 0.35875297
000030 84 82 44 be 90 27 c0 3d a8 77 be 3c 70 cf 96 3e
       -0.19190413 0.09382546 0.023250416 0.29455137
000040 06 28 82 3e a8 57 cd 3e 10 52 51 3e 28 2b 66 3e
       0.2542116 0.4010594 0.2044146 0.224774
000050 9a 8c f7 be 72 6e 86 3e b0 86 3b be 00 a7 26 be
       -0.48349458 0.26256138 -0.18313098 -0.16274643

layer2.weight f4 [24, 24]
000000 ee c8 21 be b2 5e 8b bd e6 ae 0d 3e 72 95 2c 3e
       -0.15799305 -0.06805171 0.1383625 0.16853884
000010 4c e8 10 bd 40 61 52 bb 20 c6 0b 3d 2a 7e 0d 3e
       -0.035377786 -0.0032101423 0.034124494 0.13817659
000020 b8 82 9c 3c 3b a4 44 be e4 cd 46 3e 9f 1e 01 be
       0.0191053 -0.19203274 0.19414479 -0.12609337
000030 51 d0 21 be 74 b0 a6 3d 34 63 9f 3d 80 93 79 3c
       -0.15802123 0.081391245 0.07782593 0.015232921
000040 78 17 80 3c b0 dd d1 3c 46 9d 1b 3e c4 57 26 3e
       0.01563619 0.025618404 0.15196714 0.16244417
000050 63 ee d4 bd dc c2 9b bd 20 71 03 3e ad 16 4d be
       -0.10397031 -0.07605526 0.12836123 -0.20028181
000060 ec 00 23 3d 60 78 d9 3b c1 1e 4d be 7a df 49 bb
       0.0397958 0.0066366643 -0.20031263 -0.0030803368
000070 fb dc a0 3d 20 07 59 3c 59 1c b8 bb fa 0d 27 3e
       0.07854649 0.013246328 -0.0056186137 0.16313925
000080 a5 78 11 be df 61 3c be 0c f9 c8 3d e6 2d 72 3d
       -0.14206178 -0.1839671 0.09813127 0.059125803
000090 78 29 95 bd f0 56 07 bd fd 86 87 bd 73 96 4b 3d
       -0.072833 -0.033041894 -0.06617544 0.049704026
0000a0 f0 24 72 bd f6 d3 40 be a8 1c 50 bd 3e 82 3d 3e
       -0.059117258 -0.18830857 -0.05080858 0.18506715
0000b0 d3 b6 5d be db f1 08 be 22 69 36 be a6 40 50 be
       -0.21651773 -0.1337351 -0.17813542 -0.20337161
0000c0 2c 91 95 bd 24 58 b7 3d 40 50 b9 3d 93 4a 4d 3c
       -0.0730308 0.08952358 0.090485096 0.012529987
0000d0 cf 51 cd 3e 9e cd 30 3e 25 b2 44 3e 2c 95 a9 3d
       0.40101478 0.17265937 0.19208582 0.082804054
0000e0 ea 73 8d 3e f5 0a 9d bc b4 5a 97 bd c7 be 94 3e
       0.27627498 -0.019170264 -0.07390347 0.29051802
0000f0 38 be 0e be c0 7b 59 bd c0 ed 09 3f 4e 3c 27 bd
       -0.1393975 -0.053096533 0.538784 -0.040828995
000100 21 8b be bd 8c 08 72 be 34 ef cc 3d 48 89 8e bc
       -0.093038805 -0.23636073 0.10006562 -0.017399445
000110 2e 5b 8e be a1 fa 2d 3f d3 cc e9 bd 68 b6 14 be
       -0.2780394 0.67960554 -0.1141602 -0.14522707
000120 d4 ea 50 bd 08 84 99 bc 4e 3c 09 be 34 88 f3 be
       -0.0510052 -0.018739715 -0.1340191 -0.47564852
000130 0e 6f b6 3e ec d2 e5 bd f7 0b aa 3d c0 58 33 bc
       0.35631603 -0.11221871 0.08303063 -0.010946453
000140 71 8b bd bb 80 97 4c 3e c0 26 2c 3b fb 52 38 bb
       -0.005784445 0.19979668 0.0026268214 -0.0028125632
000150 12 09 34 be 3c e3 26 3e d8 7a bb 3e b6 ad 96 3c
       -0.17581585 0.1629762 0.3661716 0.018393379
000160 98 25 e8 3d ae 40 8e be 3c 26 c1 3d de 2b ef bd
       0.113352954 -0.27783722 0.09431121 -0.11678289
000170 02 30 69 3c c3 4b 05 3f d8 17 1a 3e cc ac 12 bd
       0.014232637 0.5206873 0.15048158 -0.035809323
000180 e4 66 02 bd bb 58 e4 bd cd 8e 23 be c1 39 8b 3e
       -0.031836405 -0.111497365 -0.15972443 0.271925
000190 a3 f4 a6 bc f4 de 0b 3e 91 d4 1d bd 74 73 dc bd
       -0.020380324 0.13659269 -0.038532797 -0.107642084
0001a0 52 27 97 3e 7c 91 1d 3e b0 19 02 3c f6 b1 6a 3e
       0.29522187 0.15387529 0.007940695 0.22919449
0001b0 0c 0d 68 bd 70 18 0b 3c f0 62 6f be c7 64 9d bd
       -0.056653067 0.008489713 -0.23377585 -0.076852374
0001c0 34 e5 3a be 53 9b 81 3e 40 00 3f bb 10 4f 4a bd
       -0.18251497 0.25313815 -0.0029144436 -0.049391806
0001d0 c9 79 91 3e f8 c4 1a 3c c0 ab a2 bd 14 b8 82 3d
       0.28413227 0.009446375 -0.07942915 0.06382766
0001e0 14 af 30 bd ec 65 cb 3d 00 f0 83 bc 1b 55 3a 3e
       -0.043135718 0.099315494 -0.016105652 0.18196528
0001f0 38 48 47 3d 2e 61 d0 bd a9 3b d5 3c b8 33 f2 bd
       0.048652858 -0.101747856 0.026029425 -0.11826271
000200 97 9b 59 be db a9 82 be 90 63 40 bd ce df e8 3d
       -0.21250759 -0.25520214 -0.04696995 0.11370812
000210 60 24 bb 3b 2f 85 39 be bd 00 36 bd 54 e8 9f bd
       0.0057111233 -0.18117212 -0.044434298 -0.07807985
000220 9c 7b 3a 3d 3a 6f 4a 3d 9e 6e 05 3e 54 67 57 bd
       0.04552804 0.04942248 0.13030478 -0.052588776
000230 de d3 b4 bd 67 c8 22 be de 00 43 3e 18 f5 8d 3d
       -0.08829473 -0.1589676 0.190433 0.069315135
000240 b4 dd 01 be 8a 6b a8 bd 74 ec 9f 3d de c2 06 3f
       -0.1268223 -0.082236364 0.07808772 0.52641094
000250 13 ad f1 be 40 16 5d 3d 7b 54 81 3e c3 4b 20 be
       -0.47202358 0.053976297 0.25259766 -0.15653901
000260 61 e6 db bd 7a 70 7b 3c 26 8b 2a 3e f2 0b 28 3d
       -0.10737301 0.015346641 0.16654643 0.041027017
000270 40 d2 39 bb 70 f5 88 3c b4 85 88 be 1f d5 a2 3e
       -0.0028354079 0.016718596 -0.26664507 0.31803223
000280 bd bc df bd 36 f0 1c 3e 80 14 f4 bc 1c 0c ff 3d
       -0.10924671 0.15326008 -0.029794931 0.124534816
000290 b4 f3 de 3d f1 f1 30 be 6a 24 3d 3e 34 b0 4b bd
       0.108863264 -0.17279793 0.18470922 -0.049728587
0002a0 a0 79 18 bc 30 f2 20 be f4 b0 91 bd 04 d0 18 3e
       -0.009306341 -0.15717387 -0.07113829 0.14923102
0002b0 ec 03 a9 3d 2f 17 bf bd 24 e8 46 3e 36 19 0c be
       0.08252701 -0.09330594 0.19424492 -0.13681492
0002c0 c6 0f 4b be 56 2d a2 bd d0 48 3e 3e 70 74 8b bd
       -0.19830236 -0.079188034 0.18582463 -0.06809318
0002d0 64 09 f6 3d 84 af 94 3d 49 7d 2e be e0 ba 51 bd
       0.1201351 0.072600394 -0.1703998 -0.05120361
0002e0 74 06 18 3e 64 db 96 3d 40 6b c9 3d 3f b2 28 be
       0.14846212 0.07366064 0.098349094 -0.16474245
0002f0 8e ad 11 be 48 ea 07 bd 38 6a 94 bd 9e 7a 36 3e
       -0.14226362 -0.033182412 -0.07246822 0.17820212
000300 98 ce 49 3d 00 c6 fe b9 80 91 6d 3b c0 57 40 bb
       0.04926929 -0.00048594177 0.0036250055 -0.0029349178
000310 60 d5 46 bd 8f cf 31 be 4c 63 a4 3d dd 0e fa bd
       -0.048543334 -0.17364334 0.08026752 -0.12209866
000320 f8 e2 71 bd 40 0a fb 3b 20 de 17 bc f8 14 b6 3d
       -0.059054345 0.007661134 -0.009269267 0.08890718
000330 f0 f5 fd 3d dc e6 8d 3d ea 7e 42 be c2 ab 04 be
       0.124004245 0.069287986 -0.18993726 -0.12956145
000340 9e 5c 25 3e 20 cc 98 3b e8 39 9a 3d 6e 9e 09 3e
       0.16148612 0.0046630055 0.07530576 0.13439342
000350 84 14 8c bd 21 5a ea bd 9c 34 b8 3d 1c 60 66 bd
       -0.068398505 -0.11442972 0.089944094 -0.056244
000360 1a cf 2f 3e a0 dd 7d 3d ff fc 47 be 77 d2 c5 3d
       0.17168847 0.061978936 -0.19530104 0.096592836
000370 dd c8 6d be 69 d5 d3 bd 21 9a 78 bd d6 7b 1d 3e
       -0.23221155 -0.10343439 -0.060693864 0.15379271
000380 e4 30 29 be 19 af dc bd 72 bb 1e 3e 80 8d 7a 3d
       -0.16522557 -0.10775585 0.15501192 0.0611701
000390 0c 99 a1 3d e0 a2 4e 3d 8a 15 16 3e 6c 27 54 be
       0.078905195 0.0504483 0.14656654 -0.20718163
0003a0 90 99 a3 3d 88 fb 4d 3d 2c 40 0a be 5c a9 1e bd
       0.07988274 0.050288707 -0.13501042 -0.038735732
0003b0 52 0e 9b bd 7e eb e3 3d 40 eb 45 3e 22 82 41 be
       -0.07571091 0.11128901 0.19328022 -0.18897298
0003c0 76 da 10 3e 8c 77 b4 3d 1d a3 20 be 66 cb 98 3e
       0.14145836 0.08811864 -0.15687223 0.2984268
0003d0 b1 4e 02 bf d5 d1 ac bd 66 87 78 3e d8 77 35 3d
       -0.50901324 -0.0843846 0.242704 0.044303745
0003e0 46 b2 90 3e 0b 9d c1 bd 46 59 45 3e f1 d6 f7 3d
       0.28261012 -0.09453782 0.19272336 0.12101544
0003f0 80 3a 33 3b 29 4a ed bd 3e 90 d1 be 74 21 38 3e
       0.00273481 -0.115864106 -0.4093036 0.17981511

layer2.bias f4 [24]
000000 ec e5 ec bd f7 b4 84 be 3d 7f 8a 3e b1 4d b3 bd
       -0.115672916 -0.25919315 0.270502 -0.08755053
000010 87 18 88 bd 71 d6 90 3d ae b7 94 bd b0 5a 21 bd
       -0.06645303 0.070721515 -0.072615966 -0.039393127
000020 28 1f 0a be f5 7f 12 be 0b 09 ce bc ca 27 9c bd
       -0.13488448 -0.14306624 -0.025150796 -0.07624777
000030 b0 a8 98 3d 73 17 db bc 1f ef a2 3d 4c ad c0 3d
       0.074540496 -0.02674458 0.07955765 0.09408054
000040 b5 02 23 3e 23 1b b9 bc 9f 39 04 be 7f 4d 58 3e
       0.15919001 -0.022595948 -0.12912606 0.21123312
000050 bc f2 5b be f2 35 5c 3e be 5d 77 3e c2 7e 9d 3e
       -0.21479315 0.21504954 0.24156854 0.3076077

layer3.weight f4 [3, 24]
000000 64 6d 1b be b6 85 4f bd 3c 30 76 3e ab 92 ee 3e
       -0.15178448 -0.050664626 0.24041837 0.46596274
000010 af 33 b8 be 14 75 59 bc c2 72 de be 02 3c 46 3e
       -0.3597693 -0.0132725425 -0.43446928 0.19358829
000020 06 43 23 3e 7c cb b8 bd ae e6 00 bf f8 31 11 bd
       0.15943536 -0.090231866 -0.5035199 -0.035448045
000030 7c 05 1b bd 0e c5 19 be 11 f5 92 bd 7d 1b 1d be
       -0.037847027 -0.15016577 -0.07175649 -0.15342517
000040 59 9c c6 be 01 5f 51 3e 50 6d 39 3e 7b 6a df be
       -0.3879116 0.20446397 0.18108106 -0.43635926
000050 25 19 e1 bd 91 e9 91 3e 32 5e 9f 3e f9 a5 ab 3e
       -0.10991124 0.2849851 0.31126553 0.33525065
000060 0c 56 2a 3d 2d d3 01 3e 2c c5 08 3e 8b af 79 be
       0.041585967 0.12678213 0.13356465 -0.2438337
000070 b1 dc 54 3e 49 37 d3 3c ab 66 15 be 6e 24 07 3e
       0.20787312 0.025783198 -0.14589946 0.1319749
000080 ae 05 43 be 0b b6 91 bd 5e fe eb 3c d0 0e 3f 3d
       -0.19045135 -0.071148 0.028807815 0.046644986
000090 54 5a e5 3d 6a 7c c8 bd 0e 60 ee 3d 00 3f ed 3c
       0.11198869 -0.09789355 0.11639415 0.028960705
0000a0 dc 03 8a bd 08 38 82 3e 9f 7d f6 3d f8 16 85 3d
       -0.06739017 0.25433373 0.12035679 0.064985216
0000b0 73 3c c6 bc 1f 90 18 be 86 fe d7 3d aa 98 7f 3d
       -0.024198746 -0.14898728 0.10546593 0.06240145
0000c0 56 1b 32 3e ad 85 3d be 4c 4f f3 be 82 4c 1c be
       0.1739324 -0.18508025 -0.47521436 -0.1526356
0000d0 f4 a6 90 3d db 79 c4 3b 50 17 1f bc a0 8f d2 3b
       0.07063094 0.0059959716 -0.009710148 0.006425813
0000e0 e4 aa 03 3d 2b 71 b8 bc 55 bd a9 3e c6 72 0d 3e
       0.032145396 -0.0225149 0.3315226 0.13813314
0000f0 a4 5e d0 3d 36 02 ab bd c2 8f b7 3d bb 63 c8 bd
       0.10174301 -0.08350031 0.089629665 -0.09784647
000100 1e e5 55 3d f5 96 e2 3d 97 5a d5 3d 06 7e a1 3e
       0.052220456 0.11063949 0.10417669 0.3154146
000110 55 8c 7b bd 3b 2b 54 be 39 78 03 bf 3c 8f e0 be
       -0.061413128 -0.20719616 -0.5135532 -0.4385928

layer3.bias f4 [3]
000000 e8 1a 31 3d 2a bb 39 3d 1a fe 23 be
       0.04323855 0.04534451 -0.16014901
