Samples/Tutorial Samples/PyTorch Data Analysis/PyTorch Training - Data Analysis/Network.onnx (onnx, 3785 bytes, 6 tensors)

layer1.bias f4 [24]
000000 e8 2f d4 bd 94 8f 10 3e bc b7 e7 3e 0f d2 46 3e
       -0.103607 0.1411727 0.45257366 0.19416068
000010 e8 fd 7c 3e e4 25 27 be a2 70 8f bd 20 53 c2 3c
       0.24706233 -0.16323048 -0.07003905 0.023721278
000020 8c 0c 28 3f bd af 7e bd c4 4a d9 be 6d df c3 3e
       0.65644145 -0.062179316 -0.42439854 0.38256398
000030 84 82 44 be 90 27 c0 3d e8 84 49 3d 04 04 92 3e
       -0.19190413 0.09382546 0.049199015 0.2851869
000040 06 28 82 3e 4e 42 c2 3e 10 52 51 3e 28 2b 66 3e
       0.2542116 0.3794121 0.2044146 0.224774
000050 27 d9 01 bf 7a b4 93 3e b0 86 3b be 00 a7 26 be
       -0.50721973 0.2884863 -0.18313098 -0.16274643

layer1.weight f4 [24, 4]
000000 50 99 ee be 30 dd 91 3e 04 79 a9 be 28 54 9d 3e
       -0.46601343 0.28489065 -0.3310014 0.3072827
000010 50 24 ea be 80 3e b0 3b 60 e2 fe be 38 5c 3a 3e
       -0.4573083 0.0053785443 -0.49782085 0.18199241
000020 00 f3 ce bc 00 b0 fe 3b c8 4c fd be 8e a4 86 3e
       -0.025262356 0.0077724457 -0.49472642 0.2629742
000030 3b 05 39 3e 9a b3 9a be 52 14 ed 3e d3 5e 5f 3e
       0.18068402 -0.3021515 0.46304566 0.21813516
000040 63 01 8b 3e 90 40 b4 3e 59 97 82 be d4 21 30 bf
       0.27149495 0.35205507 -0.25506094 -0.6880162
000050 e6 91 86 be 00 e0 a3 bd 80 f6 ca 3d 5e 7f e2 3e
       -0.26283187 -0.08001709 0.099102974 0.44237798
000060 1a 33 ea 3e 9d b3 1c be e2 dd b8 bd 26 15 0f 3e
       0.45742112 -0.15302892 -0.09026696 0.13972911
000070 1c 76 03 be c8 01 e7 3d c0 98 08 3c 80 13 2c bc
       -0.12838024 0.112796366 0.0083372 -0.010502696
000080 8d a5 10 3f 81 21 d4 bd a0 e7 0c be 23 f8 01 3c
       0.5650261 -0.10357953 -0.13760233 0.007932696
000090 73 b5 a8 3e 3d 5c 8b 3e ca 3b dd be ec 37 18 3e
       0.32950935 0.2721881 -0.43209678 0.14865083
0000a0 9c aa 21 be 60 87 07 bd 2e cc bf be da f1 88 be
       -0.15787739 -0.033088088 -0.37460464 -0.26747018
0000b0 0c 37 08 3f 67 2b 1a 3e 6f 42 c4 bd 2f ea 09 bf
       0.53208995 0.15055619 -0.09582984 -0.5387296
0000c0 d6 05 a5 be 98 b4 28 3e d8 1b 81 3d 8e 1b a2 3e
       -0.32231015 0.16475141 0.06304139 0.31661648
0000d0 bc 56 16 be 20 e8 d4 3d 80 04 4d bc 00 29 49 bd
       -0.14681524 0.10395837 -0.01251328 -0.049111366
0000e0 60 4b 87 3e 91 4c 41 3f 34 da 02 bf c2 ed e1 be
       0.26424694 0.75507456 -0.511142 -0.44126707
0000f0 c3 6e b4 3e ae 89 b9 3d b0 c9 0b 3f 18 c6 bf 3e
       0.35240754 0.090594634 0.54604626 0.3745582
000100 f0 a6 9e 3d ec 32 c5 be c8 c1 89 3d 08 68 fb be
       0.077466846 -0.38515413 0.06726414 -0.49102807
000110 b3 8f 42 3c d4 c0 47 bd 5c 1d dd 3e 2c 8a ae 3e
       0.011875081 -0.04876788 0.43186462 0.34089792
000120 62 44 ea be 48 f4 3e be d8 07 2b be 00 37 ba 3e
       -0.45755297 -0.18647873 -0.16702211 0.36370087
000130 18 83 85 bd 68 30 87 3d c0 5e 62 be 68 4c 00 3e
       -0.06519145 0.0660103 -0.22106457 0.12529147
000140 03 f5 cb 3e 72 36 b4 be 6d 74 92 3e 0e de 0c 3f
       0.39835367 -0.35197788 0.2860445 0.5502633
000150 0a 69 bc 3e 52 04 c4 3e 44 fe 11 bf bd 62 3e be
       0.36798888 0.38284546 -0.57028604 -0.18592353
000160 a8 8e f3 3d d4 4e d4 be 76 59 c8 be 02 04 b9 be
       0.11892444 -0.4146639 -0.39130753 -0.3613587
000170 6a 71 ff be 44 65 36 be 7c 4a d5 3e d0 18 46 3e
       -0.49891216 -0.17812067 0.4165839 0.19345403

layer2.bias f4 [24]
000000 7d bc e4 bd b5 bf 84 be c2 e7 95 3e 8c d7 a6 bd
       -0.11168764 -0.2592751 0.2927838 -0.08146581
000010 dd 6f 7c bd 7c 9a 90 3d 0b 87 aa bd b0 5a 21 bd
       -0.06163012 0.070607156 -0.08326539 -0.039393127
000020 28 1f 0a be a9 a0 12 be 9d fd f4 bc ca 27 9c bd
       -0.13488448 -0.143191 -0.029906088 -0.07624777
000030 b0 a8 98 3d d8 39 dc bc 8c 95 a2 3d 4c ad c0 3d
       0.074540496 -0.02688305 0.0793868 0.09408054
000040 3a 03 1a 3e 1e c7 b9 bc 20 4f 04 be 92 a4 53 3e
       0.15040293 -0.022677954 -0.12920809 0.20668247
000050 3d 08 5c be e8 49 62 3e ee c5 85 3e fe 50 aa 3e
       -0.21487518 0.22098505 0.2612757 0.33264917

layer2.weight f4 [24, 24]
000000 ee c8 21 be b2 5e 8b bd e6 ae 0d 3e 1e 3a 51 3e
       -0.15799305 -0.06805171 0.1383625 0.20432326
000010 40 ab ff bd 40 61 52 bb 25 50 84 3d 2a 7e 0d 3e
       -0.12483835 -0.0032101423 0.06460599 0.13817659
000020 f9 1b 21 3d 7e f6 45 be e4 cd 46 3e 9a 67 f2 bd
       0.039333317 -0.1933231 0.19414479 -0.11836167
000030 51 d0 21 be 74 b0 a6 3d 01 b6 53 bc a2 73 2c 3d
       -0.15802123 0.081391245 -0.012921811 0.042102464
000040 78 17 80 3c e0 de 67 3d 46 9d 1b 3e c4 57 26 3e
       0.01563619 0.056609035 0.15196714 0.16244417
000050 c0 36 7c bd d7 c4 16 be 20 71 03 3e ad 16 4d be
       -0.06157565 -0.14723526 0.12836123 -0.20028181
000060 ec 00 23 3d 60 78 d9 3b c1 1e 4d be 2e 3f 4f bb
       0.0397958 0.0066366643 -0.20031263 -0.0031623351
000070 fd b1 a0 3d 20 07 59 3c 4a cc ba bb fa 0d 27 3e
       0.078464486 0.013246328 -0.0057006227 0.16313925
000080 26 8e 11 be 60 77 3c be 0c f9 c8 3d e8 d7 71 3d
       -0.14214382 -0.18404913 0.09813127 0.059043795
000090 78 29 95 bd f0 56 07 bd fb b1 87 bd 75 40 4b 3d
       -0.072833 -0.033041894 -0.06625744 0.049622018
0000a0 f0 24 72 bd 77 e9 40 be a8 1c 50 bd 3e 82 3d 3e
       -0.059117258 -0.1883906 -0.05080858 0.18506715
0000b0 54 cc 5d be 5c 07 09 be 22 69 36 be a6 40 50 be
       -0.21659976 -0.13381714 -0.17813542 -0.20337161
0000c0 2c 91 95 bd 24 58 b7 3d 40 50 b9 3d 72 35 b8 39
       -0.0730308 0.08952358 0.090485096 0.00035135035
0000d0 03 7f 03 3f 9e cd 30 3e 34 33 45 3e 2c 95 a9 3d
       0.5136568 0.17265937 0.19257814 0.082804054
0000e0 a4 bc 92 3e 4d 75 17 3c b4 5a 97 bd 1b 4a a1 3e
       0.28659546 0.009244275 -0.07390347 0.3150185
0000f0 38 be 0e be c0 7b 59 bd 7a 8c 22 3f 02 39 3a bd
       -0.1393975 -0.053096533 0.634956 -0.045464523
000100 21 8b be bd 17 d5 7c be 34 ef cc 3d 48 89 8e bc
       -0.093038805 -0.24690662 0.10006562 -0.017399445
000110 56 8d 97 be 14 29 46 3f d3 cc e9 bd 68 b6 14 be
       -0.29600018 0.7740643 -0.1141602 -0.14522707
000120 d4 ea 50 bd 08 84 99 bc 4e 3c 09 be 33 9f f4 be
       -0.0510052 -0.018739715 -0.1340191 -0.4777771
000130 3b f1 be 3e ec d2 e5 bd 1c 92 b8 3d c0 58 33 bc
       0.3729342 -0.11221871 0.09012243 -0.010946453
000140 4c c9 dd 3a 20 ea 56 3e c0 26 2c 3b fb a4 c5 3b
       0.0016920953 0.20987749 0.0026268214 0.00603163
000150 12 09 34 be 3c e3 26 3e e4 50 c2 3e 27 59 a9 3c
       -0.17581585 0.1629762 0.3795234 0.020672394
000160 98 25 e8 3d 5b 79 8e be 3c 26 c1 3d de 2b ef bd
       0.113352954 -0.27826962 0.09431121 -0.11678289
000170 4c 93 4d 3c 58 0e 09 3f d8 17 1a 3e cc ac 12 bd
       0.012547325 0.5353751 0.15048158 -0.035809323
000180 e4 66 02 bd bb 58 e4 bd cd 8e 23 be fa 29 8a 3e
       -0.031836405 -0.111497365 -0.15972443 0.2698515
000190 7c 77 cf 3a f4 de 0b 3e a1 3e 1c bd 74 73 dc bd
       0.0015828456 0.13659269 -0.038145665 -0.107642084
0001a0 35 67 98 3e 44 46 1f 3e b0 19 02 3c 80 98 6f 3e
       0.2976624 0.15554148 0.007940695 0.23398018
0001b0 0c 0d 68 bd 70 18 0b 3c de c7 61 be e2 0a 9e bd
       -0.056653067 0.008489713 -0.220489 -0.077169195
0001c0 34 e5 3a be dc f5 80 3e 40 00 3f bb 10 4f 4a bd
       -0.18251497 0.25187576 -0.0029144436 -0.049391806
0001d0 42 87 8f 3e 07 dd b7 3c c0 ab a2 bd 14 b8 82 3d
       0.2803288 0.022444261 -0.07942915 0.06382766
0001e0 14 af 30 bd ec 65 cb 3d 00 f0 83 bc 5f 6a 3a 3e
       -0.043135718 0.099315494 -0.016105652 0.1820464
0001f0 c6 b4 46 3d 2e 61 d0 bd 9f 7e d4 3c b8 33 f2 bd
       0.048512243 -0.101747856 0.025939284 -0.11826271
000200 9d b3 59 be c8 b7 82 be 90 63 40 bd 3d a6 e8 3d
       -0.21259923 -0.2553084 -0.04696995 0.113598324
000210 60 24 bb 3b 2f 85 39 be e3 9e 36 bd d0 11 a0 bd
       0.0057111233 -0.18117212 -0.04458512 -0.078158975
000220 9c 7b 3a 3d 50 47 4a 3d 9e 6e 05 3e 54 67 57 bd
       0.04552804 0.049384415 0.13030478 -0.052588776
000230 3e fb b4 bd 27 f1 22 be de 00 43 3e 18 f5 8d 3d
       -0.08836983 -0.15912305 0.190433 0.069315135
000240 b4 dd 01 be 8a 6b a8 bd 74 ec 9f 3d f3 09 0d 3f
       -0.1268223 -0.082236364 0.07808772 0.55093306
000250 8f 0c 0d bf 40 16 5d 3d 34 0a 86 3e c3 4b 20 be
       -0.5509729 0.053976297 0.2617966 -0.15653901
000260 57 ef dd bd 4c 0f e9 b9 26 8b 2a 3e 2a 42 df 3c
       -0.10836666 -0.0004445262 0.16654643 0.02725323
000270 40 d2 39 bb 70 f5 88 3c 21 1a a9 be 0d b5 a9 3e
       -0.0028354079 0.016718596 -0.33027747 0.33145943
000280 bd bc df bd 16 2f 30 3e 80 14 f4 bc 1c 0c ff 3d
       -0.10924671 0.17205462 -0.029794931 0.124534816
000290 bb 9e 0c 3e 86 9b 70 be 6a 24 3d 3e 34 b0 4b bd
       0.13732426 -0.23496827 0.18470922 -0.049728587
0002a0 a0 79 18 bc 30 f2 20 be f4 b0 91 bd 04 d0 18 3e
       -0.009306341 -0.15717387 -0.07113829 0.14923102
0002b0 ec 03 a9 3d 2f 17 bf bd 24 e8 46 3e 36 19 0c be
       0.08252701 -0.09330594 0.19424492 -0.13681492
0002c0 c6 0f 4b be 56 2d a2 bd d0 48 3e 3e 70 74 8b bd
       -0.19830236 -0.079188034 0.18582463 -0.06809318
0002d0 64 09 f6 3d 84 af 94 3d 49 7d 2e be e0 ba 51 bd
       0.1201351 0.072600394 -0.1703998 -0.05120361
0002e0 74 06 18 3e 64 db 96 3d 40 6b c9 3d 3f b2 28 be
       0.14846212 0.07366064 0.098349094 -0.16474245
0002f0 8e ad 11 be 48 ea 07 bd 38 6a 94 bd 9e 7a 36 3e
       -0.14226362 -0.033182412 -0.07246822 0.17820212
000300 98 ce 49 3d 00 c6 fe b9 80 91 6d 3b c0 57 40 bb
       0.04926929 -0.00048594177 0.0036250055 -0.0029349178
000310 60 d5 46 bd 8f cf 31 be 4c 63 a4 3d dd 0e fa bd
       -0.048543334 -0.17364334 0.08026752 -0.12209866
000320 f8 e2 71 bd 40 0a fb 3b 20 de 17 bc f8 14 b6 3d
       -0.059054345 0.007661134 -0.009269267 0.08890718
000330 f0 f5 fd 3d dc e6 8d 3d ea 7e 42 be c2 ab 04 be
       0.124004245 0.069287986 -0.18993726 -0.12956145
000340 9e 5c 25 3e 20 cc 98 3b e8 39 9a 3d 6e 9e 09 3e
       0.16148612 0.0046630055 0.07530576 0.13439342
000350 84 14 8c bd 21 5a ea bd 9c 34 b8 3d 1c 60 66 bd
       -0.068398505 -0.11442972 0.089944094 -0.056244
000360 1a cf 2f 3e a0 dd 7d 3d ff fc 47 be 11 91 c5 3d
       0.17168847 0.061978936 -0.19530104 0.0964681
000370 91 e9 6d be 69 d5 d3 bd ef 1c 79 bd d6 7b 1d 3e
       -0.2323363 -0.10343439 -0.06081861 0.15379271
000380 98 51 29 be 7f f0 dc bd 72 bb 1e 3e b1 0a 7a 3d
       -0.16535032 -0.107880585 0.15501192 0.061045352
000390 0c 99 a1 3d e0 a2 4e 3d d6 f4 15 3e 20 48 54 be
       0.078905195 0.0504483 0.14644179 -0.20730639
0003a0 90 99 a3 3d b9 78 4d 3d 2c 40 0a be 5c a9 1e bd
       0.07988274 0.05016396 -0.13501042 -0.038735732
0003b0 b8 4f 9b bd 18 aa e3 3d 40 eb 45 3e 22 82 41 be
       -0.075835645 0.11116427 0.19328022 -0.18897298
0003c0 76 da 10 3e 8c 77 b4 3d 1d a3 20 be 1c 53 a2 3e
       0.14145836 0.08811864 -0.15687223 0.31704032
0003d0 33 58 0d bf d5 d1 ac bd ea 9d 80 3e d8 77 35 3d
       -0.55212706 -0.0843846 0.2512048 0.044303745
0003e0 f8 94 91 3e 8c f1 cd bd 46 59 45 3e 9f 49 eb 3d
       0.28433967 -0.10055837 0.19272336 0.114886515
0003f0 80 3a 33 3b 29 4a ed bd 0a db e2 be fc 79 42 3e
       0.00273481 -0.115864106 -0.4430774 0.18991846

layer3.bias f4 [3]
000000 0e 16 31 3d f4 25 5c 3d 15 c0 2c be
       0.043233924 0.053747132 -0.16870148

layer3.weight f4 [3, 24]
000000 79 57 b4 be b8 2f 4f bd 41 f1 83 3e 0a 80 f4 3e
       -0.35222986 -0.050582618 0.2577 0.47753936
000010 c7 0b bc be 94 22 58 bc b8 1a e9 be 02 3c 46 3e
       -0.36727735 -0.013191838 -0.45528197 0.19358829
000020 06 43 23 3e 16 8a b8 bd e6 6d 05 bf f8 31 11 bd
       0.15943536 -0.09010713 -0.52120817 -0.035448045
000030 7c 05 1b bd 40 ec 19 be 80 9b 92 bd 7d 1b 1d be
       -0.037847027 -0.15031528 -0.071585655 -0.15342517
000040 24 6c d1 be 82 74 51 3e d1 82 39 3e 92 1b e8 be
       -0.40902817 0.204546 0.18116309 -0.45333534
000050 27 ee e0 bd 80 a3 98 3e c3 8d a5 3e f5 d2 b2 3e
       -0.10982924 0.2981224 0.32334718 0.34926572
000060 b7 b7 a4 3c ad bd 01 3e 1f a0 51 3e 82 fe 85 be
       0.020107133 0.12670012 0.20471238 -0.26170737
000070 4a 4e 4d 3e 1f 2a d4 3c b0 aa 2a be 6e 24 07 3e
       0.20049396 0.025898991 -0.16666675 0.1319749
000080 ae 05 43 be 71 f7 91 bd 26 09 f4 3b d0 0e 3f 3d
       -0.19045135 -0.07127274 0.0074473796 0.046644986
000090 54 5a e5 3d fb 7a c8 bd 7e 06 ee 3d 00 3f ed 3c
       0.11198869 -0.09789082 0.11622332 0.028960705
0000a0 97 ce af bd c6 42 82 3e a1 52 f6 3d 1f 43 33 3d
       -0.08584326 0.2544157 0.12027479 0.043765184
0000b0 6d e8 c6 bc b5 6b 25 be cf b4 2f 3e 25 81 12 3e
       -0.024280751 -0.16154368 0.17158817 0.14307077
0000c0 ff 75 49 3e 2d 9b 3d be 10 59 0e bf 58 7b 1e be
       0.19673918 -0.18516226 -0.5560465 -0.1547674
0000d0 e0 e3 a3 3d 41 a4 c0 3b 61 b6 71 3c a0 8f d2 3b
       0.08002448 0.0058789556 0.014752955 0.006425813
0000e0 e4 aa 03 3d c1 76 b9 bc a7 b1 b6 3e c6 72 0d 3e
       0.032145396 -0.022639634 0.35682413 0.13813314
0000f0 a4 5e d0 3d e9 d3 aa bd 34 36 b7 3d bb 63 c8 bd
       0.10174301 -0.083412 0.08945885 -0.09784647
000100 c4 7e 98 3d f7 6b e2 3d 99 2f d5 3d bb 57 ae 3e
       0.074460536 0.11055749 0.10409469 0.34051308
000110 53 e2 7b bd 02 86 57 be 19 97 16 bf e8 ea 05 bf
       -0.061495136 -0.21047214 -0.58824307 -0.52311563
