Samples/Tutorial Samples/PyTorch Data Analysis/PyTorch Training - Data Analysis/RegressionModel.pth (torch, 5407 bytes, 6 tensors)

layer1.weight f4 [24, 4]
0.08654195 -0.16073966 -0.41902578 0.22356439 0.35527232 0.5188383 0.052378006 -0.007861874
0.21387492 0.07228227 0.5167069 0.16836455 0.2468438 -0.62472796 0.66071284 -0.006211889
-0.057485178 0.49316078 0.009883253 -0.3654961 0.50697696 0.36935902 0.06825978 -0.70480794
-0.09800197 0.6193416 -0.2331663 -0.09259813 -0.18238725 0.096075825 0.22432978 0.2827849
0.5193081 -0.5942307 0.24915007 0.026783861 -0.2465164 0.03431333 0.5882414 -0.054562703
-0.11340927 0.6656754 -0.014275247 -0.7006053 -0.1125263 0.69821715 -0.08050755 -0.5078423
0.4116295 0.3518935 0.1662039 0.273098 0.46873847 -0.04064849 -0.34486085 -0.18369897
-0.38923895 -0.38805985 -0.3923338 0.27369726 -0.34172076 0.10473794 -0.21235186 -0.46905452
-0.28442848 0.21299797 -0.4540801 -0.4318443 -0.040233433 -0.1898579 -0.33192855 -0.20537567
-0.0925166 -0.42637366 -0.44607568 -0.26166683 -0.17061162 0.22454053 -0.12931137 0.28603062
-0.36333638 0.25070453 -0.04480969 0.55514836 -0.44729924 -0.14677387 -0.09386778 -0.24760187
-0.2970793 0.26953086 0.59986144 0.8347517 -0.02321062 0.049068715 0.47412813 0.8052694
00000000: e83c b13d f098 24be 8c8a d6be 10ee 643e
00000010: 41e6 b53e 96d2 043f 528a 563d 17cf 00bc
00000020: 0702 5b3e ba08 943d e746 043f c267 2c3e
00000030: 9fc4 7c3e 2cee 1fbf 7a24 293f 1a8d cbbb
00000040: 9475 6bbd 927f fc3e 5eed 213c 4e22 bbbe
00000050: 3ec9 013f a01c bd3e c9cb 8b3d 4b6e 34bf
00000060: 42b5 c8bd 2c8d 1e3f 26c3 6ebe 17a4 bdbd
00000070: b9c3 3abe 67c3 c43d b5b6 653e 2fc9 903e
00000080: 60f1 043f 811f 18bf 3221 7f3e d469 db3c
00000090: cc6e 7cbe 228c 0c3d fd96 163f 247d 5fbd
000000a0: 1f43 e8bd b469 2a3f bae2 69bc de5a 33bf
000000b0: 3074 e6bd 5cbe 323f 24e1 a4bd f401 02bf
000000c0: 1ac1 d23e 632b b43e 5b31 2a3e 80d3 8b3e
000000d0: 7dfe ef3e 087f 26bd 9a91 b0be 951b 3cbe
000000e0: 544a c7be c8af c6be fadf c8be 0c22 8c3e
000000f0: 06f6 aebe d880 d63d c472 59be ea27 f0be
00000100: 9ca0 91be 241c 5a3e 307d e8be b21a ddbe
00000110: d0cb 24bd 1c6a 42be 8af2 a9be 004e 52be
00000120: 5879 bdbd a64d dabe 0864 e4be 32f9 85be
00000130: d0b4 2ebe f4ed 653e 336a 04be 9b72 923e
00000140: 3a07 babe 585c 803e 5e8a 37bd 341e 0e3f
00000150: 6804 e5be e44b 16be c03d c0bd 588b 7dbe
00000160: c71a 98be f3ff 893e 8590 193f 4ab2 553f
00000170: 3324 bebc 47fc 483d ecc0 f23e 2326 4e3f

layer1.bias f4 [24]
-0.10443908 0.04689633 -0.62076676 -0.15084727 -0.26034284 0.48287156 0.6813855 -0.2527944
-0.21750742 0.0632537 0.63409424 0.45343363 -0.25262958 0.54146534 -0.2412337 0.13997084
-0.15065211 -0.2025941 -0.29266268 -0.52500653 0.31594005 0.30528098 -0.47364768 -0.31683406
00000000: 28e4 d5bd 5e16 403d 92ea 1ebf b577 1abe
00000010: a84b 85be f13a f73e 486f 2e3f 456e 81be
00000020: 44ba 5ebe 288b 813d 0054 223f 7428 e83e
00000030: aa58 81be 799d 0a3f f805 77be 8454 0f3e
00000040: 8c44 1abe d474 4fbe e2d7 95be d466 06bf
00000050: e5c2 a13e ca4d 9c3e f381 f2be 1338 a2be

layer2.weight f4 [24, 24]
-0.05757281 0.041993603 0.119199485 0.09259947 -0.0814721 -0.0014879842 -0.29608864 0.22783133
0.15294026 0.0637786 -0.49518335 -0.34398073 0.043962657 -0.2420803 0.12278843 0.05579695
-0.084541254 -0.056382895 0.013712972 0.10956662 -0.10922487 0.11763397 0.3544208 0.38854173
0.056887537 0.15540482 -0.03163876 -0.2846106 0.14526676 0.22104388 0.5495491 -0.08266837
0.06542863 -0.15840863 0.35911188 0.5302961 0.1320306 0.23487313 0.16804194 0.037721634
-0.045572713 -0.024588123 0.0058871508 -0.08601552 -0.21726653 0.16309115 -0.37483165 -0.10382766
-0.031566218 -0.27537286 0.0077871177 -0.012625549 0.028723005 -0.21326713 -0.057819672 -0.27395043
-0.07676676 -0.16369566 -0.1657767 -0.10638638 0.045375213 -0.044613667 -0.17356591 0.08389151
-0.11409555 0.15513378 -0.16810073 0.18830173 0.14004654 0.112479866 -0.17393512 0.10594443
-0.029298618 -0.036136907 -0.24882255 -0.21498764 0.14208218 0.10823387 0.0830754 -0.16746774
-0.0010366021 -0.1579244 -0.16379106 -0.051647335 -0.034843832 0.123417795 0.06573495 -0.05768445
0.071451426 0.045342013 0.002153486 0.03713411 0.008248612 0.14766827 0.028517812 -0.25511757
0.04282406 -0.09766849 -0.16362725 0.03903395 -0.16997492 -0.14571892 -0.15479422 0.04255575
-0.11247246 0.04345627 0.123239756 -0.1544197 0.078398496 0.051190376 0.023309708 0.096393555
-0.19243358 -0.079719424 0.0050248355 -0.14038178 0.1249266 0.06793687 -0.046600908 -0.16713226
-0.13563916 0.01786629 -0.050688863 -0.3315841 0.21086699 0.00289238 0.19406508 0.04966178
-0.07418803 -0.21832103 0.37119323 0.33398739 0.1819251 -0.02498037 0.052700013 -0.07448906
0.16965148 0.12293252 -0.038548216 0.0742825 -0.17896247 -0.1728128 0.0019205101 0.10864414
-0.040904015 0.1282524 -0.16844234 -0.14779271 0.21138147 0.23730382 0.46560457 -0.33556584
0.031966086 0.0146019105 0.36846042 0.31190547 0.026771046 0.318013 -0.07270366 0.1611081
0.13736165 -0.027827278 -0.019045219 0.20605636 -0.14783187 -0.018917486 -0.25496575 -0.047528546
0.16195658 0.030737884 0.09298319 -0.20554015 0.14558575 0.2415499 0.19673179 -0.25622082
-0.032410134 -0.14345637 0.545258 0.5206546 -0.019745225 -0.058146626 0.16073343 -0.173251
0.08755195 -0.16979718 -0.17649591 -0.0435692 0.1040028 -0.00029084086 -0.16803242 0.05782405
-0.17115591 -0.2178008 -0.23528446 -0.14680225 0.10715795 0.098868914 -0.0365948 0.09867765
0.122499906 -0.22763847 0.07068358 0.048544522 -0.033560973 -0.0831961 -0.05870582 -0.016946211
0.18090433 -0.059598982 0.040218964 -0.06374444 -0.05295767 0.118380874 -0.1630651 -0.06148834
0.16280842 0.0052617216 -0.15181266 -0.03318769 -0.1609308 -0.05754611 0.07236574 0.057663307
-0.12737784 0.118305005 -0.056222644 0.24524787 -0.009134422 -0.027485395 0.019975051 0.15353912
-0.1477942 -0.04970795 0.15649131 0.13110703 -0.1040065 -0.18751189 -0.25466627 -0.102404825
-0.08484773 0.10935153 0.00093530497 0.24167904 0.10474421 -0.13562489 -0.1819908 -0.09771589
0.27001595 0.29860565 -0.26472157 -0.21242148 0.12546936 0.19365449 -0.0118294805 -0.1943813
00000000: 78d1 6bbd 7c01 2c3d dc1e f43d caa4 bd3d
00000010: d8da a6bd 7708 c3ba ee98 97be 9e4c 693e
00000020: 5f9c 1c3e 5b9e 823d ac88 fdbe 3e1e b0be
00000030: 3012 343d e6e3 77be 8078 fb3d 588b 643d
00000040: f723 adbd c0f1 66bd 60ac 603c 7764 e03d
00000050: 4ab1 dfbd 14ea f03d a576 b53e f1ee c63e
00000060: e802 693d 7122 1f3e a597 01bd 7bb8 91be
00000070: cfc0 143e 5459 623e 40af 0c3f 094e a9bd
00000080: 72ff 853d df35 22be 83dd b73e 7cc1 073f
00000090: 0833 073e 9582 703e 3013 2c3e 0082 1a3d
000000a0: 74aa 3abd 086d c9bc 00e9 c03b e828 b0bd
000000b0: 1e7b 5ebe 5e01 273e efe9 bfbe 99a3 d4bd
000000c0: 944b 01bd acfd 8cbe 142b ff3b 64db 4ebc
000000d0: 824c eb3c b362 5abe 52d4 6cbd 3b43 8cbe
000000e0: e437 9dbd d69f 27be 5ec1 29be 1ae1 d9bd
000000f0: 5cdb 393d d2bc 36bd 43bb 31be 50cf ab3d
00000100: edaa e9bd 64db 1e3e 9922 2cbe 2bd2 403e
00000110: 5c68 0f3e d85b e63d 0c1c 32be 65f9 d83d
00000120: a803 f0bc 4b04 14bd 57cb 7ebe b825 5cbe
00000130: fe7d 113e b8a9 dd3d 6f23 aa3d aa7c 2bbe
00000140: 98de 87ba efb6 21be d8b8 27be 288c 53bd
00000150: 68b8 0ebd 78c2 fc3d 0ca0 863d 8846 6cbd
00000160: 2055 923d 8cb8 393d 8021 0d3b f019 183d
00000170: 3025 073c 5a36 173e 309e e93c c59e 82be
00000180: 4868 2f3d 6b06 c8bd e78d 27be 10e2 1f3d
00000190: e80d 2ebe 5737 15be 6082 1ebe f04e 2e3d
000001a0: f657 e6bd 34ff 313d 2065 fc3d 3320 1ebe
000001b0: 648f a03d 00ad 513d 00f4 be3c fc69 c53d
000001c0: 4f0d 45be f043 a3bd 60a7 a43b 3ec0 0fbe
000001d0: 84d9 ff3d 7c22 8b3d 98e0 3ebd b824 2bbe
000001e0: fee4 0abe 535c 923c 209f 4fbd 64c5 a9be
000001f0: 84ed 573e 168e 3d3b ffb8 463e 276a 4b3d
00000200: e5ef 97bd 8c8f 5fbe 0a0d be3e 6500 ab3e
00000210: 934a 3a3e a2a3 ccbc f8db 573d b88d 98bd
00000220: 1eb9 2d3e 0cc4 fb3d bce4 1dbd 6c21 983d
00000230: f041 37be d7f5 30be a0b9 fb3a d280 de3d
00000240: f88a 27bd 9954 033e 267c 2cbe f956 17be
00000250: 6274 583e c6ff 723e b963 ee3e 49cf abbe
00000260: dfee 023d da3c 6f3c d8a6 bc3e 13b2 9f3e
00000270: f44e db3c 9ad2 a23e a8e5 94bd 86f9 243e
00000280: 88a8 0c3e 08f6 e3bc b804 9cbc 7000 533e
00000290: 3d61 17be d8f8 9abc df8a 82be 4bad 42bd
000002a0: f2d7 253e 04ce fb3c f96d be3d 1e79 52be
000002b0: 6e14 153e db58 773e 0f74 493e 602f 83be
000002c0: 7dc0 04bd 3ae6 12be 0796 0b3f 9f49 053f
000002d0: bdc0 a1bc 282b 6ebd 4e97 243e b668 31be
000002e0: 704e b33d 50df 2dbe 58bb 34be 9e75 32bd
000002f0: 6cff d43d 007c 98b9 b110 2cbe e9d8 6c3d
00000300: 7f43 2fbe 2c07 5fbe 69ee 70be 5453 16be
00000310: a175 db3d c97b ca3d 6ee4 15bd 8217 ca3d
00000320: 3be1 fa3d 0f1a 69be 8ec2 903d 9fd6 463d
00000330: 3b77 09bd b862 aabd 8475 70bd c8d2 8abc
00000340: fc3e 393e 101e 74bd a4bc 243d 728c 82bd
00000350: 24ea 58bd ac71 f23d 8afa 26be 33db 7bbd
00000360: 40b7 263e 856a ac3b c774 1bbe d1ef 07bd
00000370: 0bcb 24be 78b5 6bbd 7d34 943d 5c30 6c3d
00000380: 566f 02be e549 f23d b749 66bd 4222 7b3e
00000390: 8ba8 15bc 0d29 e1bc b8a2 a33c 5c39 1d3e
000003a0: 5d57 17be 909a 4bbd 423f 203e ec40 063e
000003b0: 5c01 d5bd 1e03 40be 9e63 82be 9fb9 d1bd
000003c0: a6c4 adbd b2f3 df3d 412f 753a b67a 773e
000003d0: 2284 d63d 40e1 0abe cc5b 3abe 451f c8bd
000003e0: 883f 8a3e d7e2 983e 9689 87be 0485 59be
000003f0: 0a7b 003e 5d4d 463e 70d0 41bc e40b 47be

layer2.bias f4 [24]
-0.2437388 0.3076872 -0.09853659 -0.14619465 -0.03623745 0.16082858 0.22650675 0.103818946
-0.048386294 0.100629404 0.11689646 0.08072454 -0.070850186 -0.011171877 0.10806078 -0.052463725
0.160986 -0.24325836 -0.061123386 -0.06211762 0.09279888 0.21592698 -0.20353001 0.12113639
00000000: aa96 79be 2d89 9d3e 8dcd c9bd 0db4 15be
00000010: b86d 14bd 3fb0 243e 63f1 673e 079f d43d
00000020: b530 46bd ca16 ce3d 6967 ef3d e852 a53d
00000030: e719 91bd 400a 37bc f84e dd3d 34e4 56bd
00000040: 84d9 243e b818 79be 845c 7abd 0c6f 7ebd
00000050: 570d be3d f61b 5d3e 2c6a 50be 5b16 f83d

layer3.weight f4 [3, 24]
-0.3431428 0.4570144 0.11804454 0.015934909 0.17664722 0.2641353 0.16900763 0.16984618
-0.058104854 0.02777846 -0.44620767 0.051334213 -0.399314 -0.123465575 -0.1883565 -0.16250202
-0.006001562 -0.37475875 0.25335854 0.1557368 -0.051307276 0.42517465 0.012228718 -0.44129923
0.020554038 0.20131212 -0.12953384 -0.018582698 -0.12914369 -0.04255887 0.13993375 0.011603319
-0.17018922 0.032784127 0.17915325 0.096571565 0.19510122 0.032463193 0.10918844 -0.17696822
-0.19609532 0.014829152 0.112082064 0.104515135 -0.041921448 0.21910797 -0.1023484 0.075729154
0.42645776 -0.33197445 0.20814906 -0.02445397 -0.032609075 -0.120775454 -0.30293593 -0.31227127
-0.07525857 -0.05278688 0.17983598 0.035440255 0.2714358 0.10522202 0.08742717 0.1069203
0.12230757 0.28522566 -0.44828516 0.11374688 0.11810934 -0.70232594 -0.13014776 0.32050425
00000000: 6ab0 afbe cbfd e93e 56c1 f13d ed89 823c
00000010: 02e3 343e be3c 873e 5610 2d3e 28ec 2d3e
00000020: 5bff 6dbd a78f e33c 5575 e4be d343 523d
00000030: e272 ccbe 85db fcbd 87e0 40be ee66 26be
00000040: c0a8 c4bb 61e0 bfbe 36b8 813e 7879 1f3e
00000050: 9427 52bd 7eb0 d93e f65a 483c f9f1 e1be
00000060: f160 a83c c424 4e3e 85a4 04be be3a 98bc
00000070: 3e3e 04be 3652 2ebd cb4a 0f3e d91b 3e3c
00000080: 1546 2ebe a648 063d f373 373e 50c7 c53d
00000090: 9dc8 473e 20f8 043d 309e df3d 2837 35be
000000a0: 36cd 48be f9f5 723c 488b e53d 080c d63d
000000b0: d3b5 2bbd d75d 603e 0a9c d1bd e317 9b3d
000000c0: ac58 da3e 8ef8 a9be 0725 553e b153 c8bc
000000d0: 1891 05bd 1f59 f7bd 6b1a 9bbe 05e2 9fbe
000000e0: 2a21 9abd 0e37 58bd ec26 383e cd29 113d
000000f0: a2f9 8a3e a47e d73d 040d b33d 08f9 da3d
00000100: 647c fa3d 1909 923e a285 e5be 20f4 e83d
00000110: 4fe3 f13d a2cb 33bf 7445 05be 2219 a43e

layer3.bias f4 [3]
0.13827068 0.19241038 -0.14774112
00000000: d496 0d3e 3a07 453e 7349 17be
